wws_snn_qat_final_weights.pth (torch, 84031 bytes, 6 tensors)

fc1.weight f4 [128, 20]
00000000: 0000 2e3e 0000 20bd 0000 663e 0000 343e
00000010: 0000 643e 0000 2abe 0000 ec3d 0000 b43d
00000020: 0000 10be 0000 84bd 0000 283e 0000 56be
00000030: 0000 303d 0000 603d 0000 683d 0000 36be
00000040: 0000 d03c 0000 843d 0000 10be 0000 00bc
00000050: 0000 84bd 0000 123e 0000 083d 0000 d03c
00000060: 0000 98bd 0000 083e 0000 083d 0000 34be
00000070: 0000 1ebe 0000 143e 0000 b83d 0000 5c3e
00000080: 0000 5a3e 0000 8cbd 0000 2cbe 0000 5e3e
00000090: 0000 683d 0000 48be 0000 663e 0000 003e
000000a0: 0000 b0bc 0000 003d 0000 263e 0000 68bd
000000b0: 0000 0c3e 0000 143e 0000 a0bd 0000 48be
000000c0: 0000 e8bd 0000 d4bd 0000 a4bd 0000 f0bc
000000d0: 0000 60bd 0000 64be 0000 4c3e 0000 883d
000000e0: 0000 563e 0000 a83d 0000 88bd 0000 34be
000000f0: 0000 46be 0000 0c3e 0000 943d 0000 983d
00000100: 0000 b03d 0000 083e 0000 22be 0000 363e
00000110: 0000 ccbd 0000 6cbe 0000 4abe 0000 50bd
00000120: 0000 d03d 0000 0000 0000 0e3e 0000 783d
00000130: 0000 9c3d 0000 f43d 0000 4a3e 0000 00be
00000140: 0000 0000 0000 98bd 0000 4a3e 0000 143e
00000150: 0000 d03c 0000 d43d 0000 04be 0000 503e
00000160: 0000 183e 0000 3c3e 0000 403e 0000 783e
00000170: 0000 f03c 0000 1abe 0000 a0bc 0000 f03d
00000180: 0000 a03c 0000 f03c 0000 483e 0000 623e
00000190: 0000 8cbd 0000 68bd 0000 80bd 0000 4a3e
000001a0: 0000 283e 0000 503e 0000 9c3d 0000 d83d
000001b0: 0000 083e 0000 2e3e 0000 903d 0000 4a3e
000001c0: 0000 403d 0000 20bc 0000 32be 0000 063e
000001d0: 0000 f03d 0000 5c3e 0000 443e 0000 10be
000001e0: 0000 183d 0000 dc3d 0000 183e 0000 e03d
000001f0: 0000 803b 0000 0a3e 0000 1cbe 0000 00bd
00000200: 0000 2abe 0000 283e 0000 203e 0000 fc3d
00000210: 0000 90bd 0000 80bb 0000 ec3d 0000 54be
00000220: 0000 2ebe 0000 20bd 0000 2ebe 0000 44be
00000230: 0000 a8bd 0000 08be 0000 6abe 0000 e03c
00000240: 0000 52be 0000 bc3d 0000 803d 0000 34be
00000250: 0000 4ebe 0000 103d 0000 d03c 0000 983d
00000260: 0000 60be 0000 44be 0000 883d 0000 acbd
00000270: 0000 a8bd 0000 30be 0000 1e3e 0000 1e3e
00000280: 0000 98bd 0000 3c3e 0000 48bd 0000 363e
00000290: 0000 e8bd 0000 bc3d 0000 063e 0000 58be
000002a0: 0000 183d 0000 2c3e 0000 103d 0000 423e
000002b0: 0000 18bd 0000 203e 0000 64be 0000 2e3e
000002c0: 0000 4ebe 0000 263e 0000 443e 0000 30be
000002d0: 0000 70bd 0000 a83d 0000 b8bd 0000 d8bd
000002e0: 0000 563e 0000 c03c 0000 fcbd 0000 c03c
000002f0: 0000 2c3e 0000 dcbd 0000 a8bd 0000 a83d
00000300: 0000 88bd 0000 e03c 0000 f43d 0000 42be
00000310: 0000 e4bd 0000 e03d 0000 303d 0000 70bd
00000320: 0000 3cbe 0000 40be 0000 60bd 0000 b43d
00000330: 0000 18bd 0000 1abe 0000 403e 0000 803c
00000340: 0000 b83d 0000 14be 0000 543e 0000 583e
00000350: 0000 903c 0000 94bd 0000 e4bd 0000 583d
00000360: 0000 883d 0000 0c3e 0000 f03d 0000 52be
00000370: 0000 903c 0000 58bd 0000 4abe 0000 ecbd
00000380: 0000 58bd 0000 10be 0000 543e 0000 063e
00000390: 0000 c4bd 0000 203e 0000 56be 0000 d4bd
000003a0: 0000 003e 0000 6c3e 0000 483e 0000 28bd
000003b0: 0000 08be 0000 46be 0000 18be 0000 263e
000003c0: 0000 103e 0000 3abe 0000 38be 0000 423e
000003d0: 0000 803d 0000 563e 0000 2ebe 0000 003d
000003e0: 0000 3abe 0000 003c 0000 683e 0000 0a3e
000003f0: 0000 e03c 0000 38be 0000 f4bd 0000 463e
0.16992188 -0.0390625 0.22460938 0.17578125 0.22265625 -0.16601562 0.115234375 0.087890625
-0.140625 -0.064453125 0.1640625 -0.20898438 0.04296875 0.0546875 0.056640625 -0.17773438
0.025390625 0.064453125 -0.140625 -0.0078125 -0.064453125 0.14257812 0.033203125 0.025390625
-0.07421875 0.1328125 0.033203125 -0.17578125 -0.15429688 0.14453125 0.08984375 0.21484375
0.21289062 -0.068359375 -0.16796875 0.21679688 0.056640625 -0.1953125 0.22460938 0.125
-0.021484375 0.03125 0.16210938 -0.056640625 0.13671875 0.14453125 -0.078125 -0.1953125
-0.11328125 -0.103515625 -0.080078125 -0.029296875 -0.0546875 -0.22265625 0.19921875 0.06640625
0.20898438 0.08203125 -0.06640625 -0.17578125 -0.19335938 0.13671875 0.072265625 0.07421875
0.0859375 0.1328125 -0.15820312 0.17773438 -0.099609375 -0.23046875 -0.19726562 -0.05078125
0.1015625 0.0 0.13867188 0.060546875 0.076171875 0.119140625 0.19726562 -0.125
0.0 -0.07421875 0.19726562 0.14453125 0.025390625 0.103515625 -0.12890625 0.203125
0.1484375 0.18359375 0.1875 0.2421875 0.029296875 -0.15039062 -0.01953125 0.1171875
0.01953125 0.029296875 0.1953125 0.22070312 -0.068359375 -0.056640625 -0.0625 0.19726562
0.1640625 0.203125 0.076171875 0.10546875 0.1328125 0.16992188 0.0703125 0.19726562
0.046875 -0.009765625 -0.17382812 0.13085938 0.1171875 0.21484375 0.19140625 -0.140625
0.037109375 0.107421875 0.1484375 0.109375 0.00390625 0.13476562 -0.15234375 -0.03125
-0.16601562 0.1640625 0.15625 0.123046875 -0.0703125 -0.00390625 0.115234375 -0.20703125
-0.16992188 -0.0390625 -0.16992188 -0.19140625 -0.08203125 -0.1328125 -0.22851562 0.02734375
-0.20507812 0.091796875 0.0625 -0.17578125 -0.20117188 0.03515625 0.025390625 0.07421875
-0.21875 -0.19140625 0.06640625 -0.083984375 -0.08203125 -0.171875 0.15429688 0.15429688
-0.07421875 0.18359375 -0.048828125 0.17773438 -0.11328125 0.091796875 0.13085938 -0.2109375
0.037109375 0.16796875 0.03515625 0.18945312 -0.037109375 0.15625 -0.22265625 0.16992188
-0.20117188 0.16210938 0.19140625 -0.171875 -0.05859375 0.08203125 -0.08984375 -0.10546875
0.20898438 0.0234375 -0.123046875 0.0234375 0.16796875 -0.107421875 -0.08203125 0.08203125
-0.06640625 0.02734375 0.119140625 -0.18945312 -0.111328125 0.109375 0.04296875 -0.05859375
-0.18359375 -0.1875 -0.0546875 0.087890625 -0.037109375 -0.15039062 0.1875 0.015625
0.08984375 -0.14453125 0.20703125 0.2109375 0.017578125 -0.072265625 -0.111328125 0.052734375
0.06640625 0.13671875 0.1171875 -0.20507812 0.017578125 -0.052734375 -0.19726562 -0.115234375
-0.052734375 -0.140625 0.20703125 0.13085938 -0.095703125 0.15625 -0.20898438 -0.103515625
0.125 0.23046875 0.1953125 -0.041015625 -0.1328125 -0.19335938 -0.1484375 0.16210938
0.140625 -0.18164062 -0.1796875 0.18945312 0.0625 0.20898438 -0.16992188 0.03125
-0.18164062 0.0078125 0.2265625 0.13476562 0.02734375 -0.1796875 -0.119140625 0.19335938

fc1.bias f4 [128]
00000000: 0000 3cbe 0000 ccbd 0000 e0bc 0000 60bc
00000010: 0000 5cbe 0000 243e 0000 90bc 0000 50bd
00000020: 0000 d4bd 0000 e4bd 0000 5a3e 0000 d03c
00000030: 0000 b43d 0000 003d 0000 a4bd 0000 903c
00000040: 0000 20bd 0000 50bd 0000 ac3d 0000 dcbd
00000050: 0000 cc3d 0000 50be 0000 32be 0000 163e
00000060: 0000 28be 0000 dcbd 0000 163e 0000 d0bd
00000070: 0000 c0bc 0000 1ebe 0000 dc3d 0000 18bd
00000080: 0000 063e 0000 483d 0000 2abe 0000 9cbd
00000090: 0000 40bd 0000 d03c 0000 b4bd 0000 843d
000000a0: 0000 a83d 0000 fc3d 0000 2c3e 0000 443e
000000b0: 0000 36be 0000 1abe 0000 10bd 0000 403e
000000c0: 0000 e43d 0000 083e 0000 c03d 0000 20be
000000d0: 0000 943d 0000 803d 0000 883d 0000 303d
000000e0: 0000 403c 0000 303d 0000 bcbd 0000 1ebe
000000f0: 0000 123e 0000 c43d 0000 0ebe 0000 dcbd
00000100: 0000 2a3e 0000 283d 0000 2ebe 0000 20bd
00000110: 0000 34be 0000 5a3e 0000 c03d 0000 4c3e
00000120: 0000 3c3e 0000 483d 0000 8c3d 0000 d03c
00000130: 0000 e03d 0000 d03c 0000 30bd 0000 a8bd
00000140: 0000 dcbd 0000 32be 0000 083e 0000 2cbe
00000150: 0000 dc3d 0000 443e 0000 483d 0000 203c
00000160: 0000 bcbd 0000 2a3e 0000 303d 0000 903c
00000170: 0000 e8bd 0000 083e 0000 0080 0000 5c3e
00000180: 0000 48bd 0000 0a3e 0000 583d 0000 44be
00000190: 0000 f03d 0000 083e 0000 083e 0000 c03c
000001a0: 0000 103e 0000 f0bc 0000 00bb 0000 f8bd
000001b0: 0000 003b 0000 603c 0000 3cbe 0000 acbd
000001c0: 0000 0cbe 0000 1cbe 0000 00bb 0000 003c
000001d0: 0000 883d 0000 10bd 0000 503e 0000 60bd
000001e0: 0000 e03d 0000 4e3e 0000 ec3d 0000 acbd
000001f0: 0000 04be 0000 2e3e 0000 1a3e 0000 d03c
-0.18359375 -0.099609375 -0.02734375 -0.013671875 -0.21484375 0.16015625 -0.017578125 -0.05078125
-0.103515625 -0.111328125 0.21289062 0.025390625 0.087890625 0.03125 -0.080078125 0.017578125
-0.0390625 -0.05078125 0.083984375 -0.107421875 0.099609375 -0.203125 -0.17382812 0.14648438
-0.1640625 -0.107421875 0.14648438 -0.1015625 -0.0234375 -0.15429688 0.107421875 -0.037109375
0.13085938 0.048828125 -0.16601562 -0.076171875 -0.046875 0.025390625 -0.087890625 0.064453125
0.08203125 0.123046875 0.16796875 0.19140625 -0.17773438 -0.15039062 -0.03515625 0.1875
0.111328125 0.1328125 0.09375 -0.15625 0.072265625 0.0625 0.06640625 0.04296875
0.01171875 0.04296875 -0.091796875 -0.15429688 0.14257812 0.095703125 -0.13867188 -0.107421875
0.16601562 0.041015625 -0.16992188 -0.0390625 -0.17578125 0.21289062 0.09375 0.19921875
0.18359375 0.048828125 0.068359375 0.025390625 0.109375 0.025390625 -0.04296875 -0.08203125
-0.107421875 -0.17382812 0.1328125 -0.16796875 0.107421875 0.19140625 0.048828125 0.009765625
-0.091796875 0.16601562 0.04296875 0.017578125 -0.11328125 0.1328125 -0.0 0.21484375
-0.048828125 0.13476562 0.052734375 -0.19140625 0.1171875 0.1328125 0.1328125 0.0234375
0.140625 -0.029296875 -0.001953125 -0.12109375 0.001953125 0.013671875 -0.18359375 -0.083984375
-0.13671875 -0.15234375 -0.001953125 0.0078125 0.06640625 -0.03515625 0.203125 -0.0546875
0.109375 0.20117188 0.115234375 -0.083984375 -0.12890625 0.16992188 0.15039062 0.025390625

fc2.weight f4 [128, 128]
00000000: 0000 9d3e 0000 10bd 0000 a4bd 0000 503d
00000010: 0000 603c 0000 803b 0000 b03c 0000 9cbd
00000020: 0000 e0bc 0000 0080 0000 103d 0000 a03c
00000030: 0000 303d 0000 083d 0000 b8bd 0000 983d
00000040: 0000 003d 0000 acbd 0000 383d 0000 00bd
00000050: 0000 80bc 0080 0e3f 0000 c0bb 0000 9cbd
00000060: 0000 cc3d 0000 30bd 0000 803b 0000 a0bd
00000070: 0000 683d 0000 903d 0000 a0bc 0000 c0bc
00000080: 0000 803d 0000 b0bd 0000 0080 0000 00bb
00000090: 0000 60bd 0000 f03c 0000 38bd 0000 f03c
000000a0: 0000 083d 0000 943d 0000 a0bd 0000 a03d
000000b0: 0000 10bd 0000 403d 0000 443e 0000 b8bd
000000c0: 0000 683d 0000 00bb 0000 003c 0000 283d
000000d0: 0000 98bd 0000 94bd 0000 58bd 0000 00bd
000000e0: 0000 d0bc 0000 c0bb 0000 d0bc 0000 083e
000000f0: 0000 803d 0000 483d 0000 083d 0000 883d
00000100: 0000 00bc 0000 acbd 0000 b03d 0000 a0bd
00000110: 0000 303d 0000 803d 0000 a43d 0000 0080
00000120: 0000 a0bd 0000 203c 0000 683d 0000 60bd
00000130: 0000 803b 0000 00bc 0000 603c 0000 b43d
00000140: 0000 40bc 0000 b03c 0000 98bd 0000 403c
00000150: 0000 603d 0000 c4bd 0000 683d 0000 18bd
00000160: 0000 00bb 0000 883d 0000 20bc 0000 d03c
00000170: 0000 90bd 0000 003d 0000 303d 0000 90bc
00000180: 0000 803c 0000 b8bd 0000 68bd 0000 103d
00000190: 0000 503d 0000 103d 0000 903c 0000 803c
000001a0: 0000 78bd 0000 b8bd 0000 9c3d 0000 90bd
000001b0: 0000 e0bd 0000 a0bd 0000 00bb 0000 20bc
000001c0: 0000 b0bd 0000 94bd 0000 80bb 0000 403c
000001d0: 0000 803b 0000 283d 0000 80bb 0000 60bd
000001e0: 0000 603d 0000 483d 0000 a0bd 0000 003d
000001f0: 0000 103d 0000 00bd 0000 003b 0000 20bd
00000200: 0000 30be 0000 58bd 0000 a03c 0000 803d
00000210: 0000 cc3d 0000 8c3d 0000 80bb 0000 78bd
00000220: 0000 60bd 0000 30bd 0000 10bd 0000 183d
00000230: 0000 20bc 0000 683d 0000 183d 0000 bc3d
00000240: 0000 68bd 0000 183d 0000 983d 0000 0c3e
00000250: 0000 603c 0000 263e 0000 98bd 0000 003b
00000260: 0000 00bb 0000 28bd 0000 58bd 0000 c0bb
00000270: 0000 383d 0000 203e 0000 c03c 0000 a03c
00000280: 0000 70bd 0000 8c3d 0000 283d 0000 d43d
00000290: 0000 d03c 0000 903d 0000 8c3d 0000 403d
000002a0: 0000 acbd 0000 60bc 0000 a0bd 0000 9c3d
000002b0: 0000 d03c 0000 88bd 0000 c03b 0000 a03c
000002c0: 0000 f03c 0000 68bd 0000 a03d 0000 903d
000002d0: 0000 603c 0000 80bb 0000 183d 0000 a8bd
000002e0: 0000 063e 0000 60bd 0000 383d 0000 c83d
000002f0: 0000 78bd 0000 80bd 0000 9cbd 0000 e03c
00000300: 0000 00bb 0000 d03d 0000 94bd 0000 58bd
00000310: 0000 30bd 0000 70bd 0000 a83d 0000 b03d
00000320: 0000 103d 0000 80bc 0000 60bc 0000 c0bb
00000330: 0000 10bd 0000 d03c 0000 403c 0000 383d
00000340: 0000 e0bc 0000 e0bc 0000 e03c 0000 843d
00000350: 0000 88bd 0000 9c3d 0000 48bd 0000 40bc
00000360: 0000 783d 0000 843d 0000 603c 0000 38bd
00000370: 0000 c03b 0000 803c 0000 78bd 0000 083d
00000380: 0000 483e 0000 303d 0000 80bb 0000 68bd
00000390: 0000 403c 0000 803d 0000 20bd 0000 a0bd
000003a0: 0000 70bd 0000 a83d 0000 e03c 0000 90bd
000003b0: 0000 223e 0000 083d 0000 8cbd 0000 803d
000003c0: 0000 a0bd 0000 603d 0000 b83d 0000 303d
000003d0: 0000 683d 0000 84bd 0000 903d 0000 583d
000003e0: 0000 80bd 0000 50bd 0000 c43d 0000 003d
000003f0: 0000 003c 0000 20bd 0000 843d 0000 383d
0.30664062 -0.03515625 -0.080078125 0.05078125 0.013671875 0.00390625 0.021484375 -0.076171875
-0.02734375 -0.0 0.03515625 0.01953125 0.04296875 0.033203125 -0.08984375 0.07421875
0.03125 -0.083984375 0.044921875 -0.03125 -0.015625 0.5566406 -0.005859375 -0.076171875
0.099609375 -0.04296875 0.00390625 -0.078125 0.056640625 0.0703125 -0.01953125 -0.0234375
0.0625 -0.0859375 -0.0 -0.001953125 -0.0546875 0.029296875 -0.044921875 0.029296875
0.033203125 0.072265625 -0.078125 0.078125 -0.03515625 0.046875 0.19140625 -0.08984375
0.056640625 -0.001953125 0.0078125 0.041015625 -0.07421875 -0.072265625 -0.052734375 -0.03125
-0.025390625 -0.005859375 -0.025390625 0.1328125 0.0625 0.048828125 0.033203125 0.06640625
-0.0078125 -0.083984375 0.0859375 -0.078125 0.04296875 0.0625 0.080078125 -0.0
-0.078125 0.009765625 0.056640625 -0.0546875 0.00390625 -0.0078125 0.013671875 0.087890625
-0.01171875 0.021484375 -0.07421875 0.01171875 0.0546875 -0.095703125 0.056640625 -0.037109375
-0.001953125 0.06640625 -0.009765625 0.025390625 -0.0703125 0.03125 0.04296875 -0.017578125
0.015625 -0.08984375 -0.056640625 0.03515625 0.05078125 0.03515625 0.017578125 0.015625
-0.060546875 -0.08984375 0.076171875 -0.0703125 -0.109375 -0.078125 -0.001953125 -0.009765625
-0.0859375 -0.072265625 -0.00390625 0.01171875 0.00390625 0.041015625 -0.00390625 -0.0546875
0.0546875 0.048828125 -0.078125 0.03125 0.03515625 -0.03125 0.001953125 -0.0390625
-0.171875 -0.052734375 0.01953125 0.0625 0.099609375 0.068359375 -0.00390625 -0.060546875
-0.0546875 -0.04296875 -0.03515625 0.037109375 -0.009765625 0.056640625 0.037109375 0.091796875
-0.056640625 0.037109375 0.07421875 0.13671875 0.013671875 0.16210938 -0.07421875 0.001953125
-0.001953125 -0.041015625 -0.052734375 -0.005859375 0.044921875 0.15625 0.0234375 0.01953125
-0.05859375 0.068359375 0.041015625 0.103515625 0.025390625 0.0703125 0.068359375 0.046875
-0.083984375 -0.013671875 -0.078125 0.076171875 0.025390625 -0.06640625 0.005859375 0.01953125
0.029296875 -0.056640625 0.078125 0.0703125 0.013671875 -0.00390625 0.037109375 -0.08203125
0.13085938 -0.0546875 0.044921875 0.09765625 -0.060546875 -0.0625 -0.076171875 0.02734375
-0.001953125 0.1015625 -0.072265625 -0.052734375 -0.04296875 -0.05859375 0.08203125 0.0859375
0.03515625 -0.015625 -0.013671875 -0.005859375 -0.03515625 0.025390625 0.01171875 0.044921875
-0.02734375 -0.02734375 0.02734375 0.064453125 -0.06640625 0.076171875 -0.048828125 -0.01171875
0.060546875 0.064453125 0.013671875 -0.044921875 0.005859375 0.015625 -0.060546875 0.033203125
0.1953125 0.04296875 -0.00390625 -0.056640625 0.01171875 0.0625 -0.0390625 -0.078125
-0.05859375 0.08203125 0.02734375 -0.0703125 0.15820312 0.033203125 -0.068359375 0.0625
-0.078125 0.0546875 0.08984375 0.04296875 0.056640625 -0.064453125 0.0703125 0.052734375
-0.0625 -0.05078125 0.095703125 0.03125 0.0078125 -0.0390625 0.064453125 0.044921875

fc2.bias f4 [128]
00000000: 0000 30bd 0000 843d 0000 88bd 0000 d03c
00000010: 0000 ac3d 0000 003c 0000 18bd 0000 84bd
00000020: 0000 c03b 0000 90bc 0000 9cbd 0000 283d
00000030: 0000 a0bc 0000 30bd 0000 e0bc 0000 94bd
00000040: 0000 bcbd 0000 48bd 0000 383d 0000 0000
00000050: 0000 8c3d 0000 003d 0000 403c 0000 58bd
00000060: 0000 003c 0000 943d 0000 c03c 0000 703d
00000070: 0000 88bd 0000 00bb 0000 00bb 0000 58bd
00000080: 0000 a0bc 0000 a4bd 0000 28bd 0000 003c
00000090: 0000 283d 0000 80bc 0000 903d 0000 48bd
000000a0: 0000 28bd 0000 003d 0000 583d 0000 983d
000000b0: 0000 903c 0000 10bd 0000 0000 0000 603d
000000c0: 0000 103d 0000 203c 0000 483d 0000 40bc
000000d0: 0000 84bd 0000 383d 0000 38bd 0000 a8bd
000000e0: 0000 88bd 0000 e03c 0000 d03c 0000 20bc
000000f0: 0000 983d 0000 983d 0000 80bd 0000 003b
00000100: 0000 70bd 0000 a83d 0000 38bd 0000 b03c
00000110: 0000 80bc 0000 20bc 0000 18bd 0000 9cbd
00000120: 0000 60bd 0000 983d 0000 8c3d 0000 903c
00000130: 0000 943d 0000 003b 0000 783d 0000 18bd
00000140: 0000 9cbd 0000 203c 0000 f0bc 0000 8c3d
00000150: 0000 c43d 0000 80bb 0000 203d 0000 00bd
00000160: 0000 60bc 0000 38bd 0000 28bd 0000 d0bc
00000170: 0000 40bd 0000 84bd 0000 983d 0000 d0bc
00000180: 0000 c0bb 0000 00bb 0000 58bd 0000 403d
00000190: 0000 503d 0000 30bd 0000 8c3d 0000 48bd
000001a0: 0000 60bc 0000 283d 0000 803d 0000 903d
000001b0: 0000 503d 0000 a0bd 0000 08bd 0000 bc3d
000001c0: 0000 28bd 0000 a0bc 0000 e0bc 0000 303d
000001d0: 0000 90bc 0000 20bc 0000 68bd 0000 b4bd
000001e0: 0000 903c 0000 84bd 0000 403d 0000 a03c
000001f0: 0000 203c 0000 a83d 0000 d03c 0000 40bd
-0.04296875 0.064453125 -0.06640625 0.025390625 0.083984375 0.0078125 -0.037109375 -0.064453125
0.005859375 -0.017578125 -0.076171875 0.041015625 -0.01953125 -0.04296875 -0.02734375 -0.072265625
-0.091796875 -0.048828125 0.044921875 0.0 0.068359375 0.03125 0.01171875 -0.052734375
0.0078125 0.072265625 0.0234375 0.05859375 -0.06640625 -0.001953125 -0.001953125 -0.052734375
-0.01953125 -0.080078125 -0.041015625 0.0078125 0.041015625 -0.015625 0.0703125 -0.048828125
-0.041015625 0.03125 0.052734375 0.07421875 0.017578125 -0.03515625 0.0 0.0546875
0.03515625 0.009765625 0.048828125 -0.01171875 -0.064453125 0.044921875 -0.044921875 -0.08203125
-0.06640625 0.02734375 0.025390625 -0.009765625 0.07421875 0.07421875 -0.0625 0.001953125
-0.05859375 0.08203125 -0.044921875 0.021484375 -0.015625 -0.009765625 -0.037109375 -0.076171875
-0.0546875 0.07421875 0.068359375 0.017578125 0.072265625 0.001953125 0.060546875 -0.037109375
-0.076171875 0.009765625 -0.029296875 0.068359375 0.095703125 -0.00390625 0.0390625 -0.03125
-0.013671875 -0.044921875 -0.041015625 -0.025390625 -0.046875 -0.064453125 0.07421875 -0.025390625
-0.005859375 -0.001953125 -0.052734375 0.046875 0.05078125 -0.04296875 0.068359375 -0.048828125
-0.013671875 0.041015625 0.0625 0.0703125 0.05078125 -0.078125 -0.033203125 0.091796875
-0.041015625 -0.01953125 -0.02734375 0.04296875 -0.017578125 -0.009765625 -0.056640625 -0.087890625
0.017578125 -0.064453125 0.046875 0.01953125 0.009765625 0.08203125 0.025390625 -0.046875

fc3.weight f4 [2, 128]
00000000: 0000 403d 0000 d0bc 0000 883d 0000 28bd
00000010: 0000 933e 0000 c43d 0000 503d 0000 a83d
00000020: 0000 6a3e 0000 183d 0000 60bd 0000 20bc
00000030: 0000 103d 0000 973e 0000 c0bc 0000 f83d
00000040: 0000 b03c 0000 003b 0000 fc3d 0000 903c
00000050: 0000 203c 0000 243e 0000 48bd 0000 983d
00000060: 0000 acbd 0000 883d 0000 203c 0000 943d
00000070: 0000 38bd 0000 88bd 0000 9cbd 0000 60bd
00000080: 0000 d03c 0000 8cbd 0000 063e 0000 8c3d
00000090: 0000 203c 0000 6e3e 0000 a43d 0000 70bd
000000a0: 0000 703d 0000 d83d 0000 38bd 0000 38bd
000000b0: 0000 d83d 0000 60bd 0000 003c 0000 903c
000000c0: 0000 883d 0000 a03c 0000 00bc 0000 8c3d
000000d0: 0000 503d 0000 e0bc 0000 0080 0000 bc3d
000000e0: 0000 28bd 0000 b4bd 0000 a83d 0000 603c
000000f0: 0000 003b 0000 803c 0000 e03c 0000 583d
00000100: 0000 683d 0000 a03d 0000 d03c 0000 123e
00000110: 0000 d03c 0000 70bd 0000 ac3d 0000 103d
00000120: 0000 40bd 0000 b4bd 0000 8cbd 0000 a8bd
00000130: 0000 303d 0000 183d 0000 bcbd 0000 acbd
00000140: 0000 203c 0000 403d 0000 4e3e 0000 8c3d
00000150: 0000 e43d 0000 3e3e 0000 903c 0000 40bc
00000160: 0000 a83d 0000 e0bc 0000 60bd 0000 a4bd
00000170: 0000 ac3d 0000 083d 0000 003d 0000 003b
00000180: 0000 003d 0000 60bd 0000 70bd 0000 38bd
00000190: 0000 843e 0000 0080 0000 8cbd 0000 803c
000001a0: 0000 003d 0000 a43d 0000 10bd 0000 94bd
000001b0: 0000 103d 0000 d0bc 0000 f43d 0000 80bd
000001c0: 0000 a0bc 0000 c03b 0000 583d 0000 e03c
000001d0: 0000 90bc 0000 a0bd 0000 8c3d 0000 103d
000001e0: 0000 803d 0000 08bd 0000 a43d 0000 503d
000001f0: 0000 9c3d 0000 40bd 0000 503d 0000 b4bd
00000200: 0000 803c 0000 78bd 0000 8c3d 0000 9c3d
00000210: 0000 a0bd 0000 9cbd 0000 94bd 0000 b0bc
00000220: 0000 2cbe 0000 c0bb 0000 603c 0000 c43d
00000230: 0000 483d 0000 91be 0000 9c3d 0000 90bd
00000240: 0000 94bd 0000 f03c 0000 06be 0000 b03c
00000250: 0000 f0bc 0000 f8bd 0000 acbd 0000 9cbd
00000260: 0000 003c 0000 e4bd 0000 38bd 0000 643e
00000270: 0000 803d 0000 503d 0000 a03c 0000 003c
00000280: 0000 883d 0000 a43d 0000 88bd 0000 403c
00000290: 0000 603d 0000 1ebe 0000 783d 0000 60bd
000002a0: 0000 60bd 0000 c4bd 0000 b83d 0000 ac3d
000002b0: 0000 e4bd 0000 903c 0000 283d 0000 20bd
000002c0: 0000 f0bc 0000 88bd 0000 803d 0000 50bd
000002d0: 0000 9cbd 0000 843d 0000 08bd 0000 38bd
000002e0: 0000 9cbd 0000 08bd 0000 70bd 0000 e0bc
000002f0: 0000 403c 0000 183d 0000 a0bd 0000 20bc
00000300: 0000 00bd 0000 30bd 0000 18bd 0000 80bc
00000310: 0000 80bc 0000 803d 0000 803c 0000 e03c
00000320: 0000 903d 0000 c0bc 0000 20bc 0000 20bd
00000330: 0000 303d 0000 383d 0000 583d 0000 9cbd
00000340: 0000 203d 0000 72be 0000 f0bd 0000 00be
00000350: 0000 c0bb 0000 b4bd 0000 c0bb 0000 203c
00000360: 0000 e4bd 0000 c0bb 0000 383d 0000 203c
00000370: 0000 083d 0000 90bd 0000 20bd 0000 203d
00000380: 0000 b43d 0000 00bc 0000 d0bc 0000 50bd
00000390: 0000 60be 0000 883d 0000 943d 0000 60bd
000003a0: 0000 843d 0000 50bd 0000 003c 0000 0080
000003b0: 0000 90bd 0000 403c 0000 98bd 0000 08bd
000003c0: 0000 80bd 0000 103d 0000 94bd 0000 083d
000003d0: 0000 183d 0000 d03c 0000 50bd 0000 78bd
000003e0: 0000 60bc 0000 9c3d 0000 a03c 0000 38bd
000003f0: 0000 203c 0000 00bd 0000 a0bc 0000 583d
0.046875 -0.025390625 0.06640625 -0.041015625 0.28710938 0.095703125 0.05078125 0.08203125
0.22851562 0.037109375 -0.0546875 -0.009765625 0.03515625 0.29492188 -0.0234375 0.12109375
0.021484375 0.001953125 0.123046875 0.017578125 0.009765625 0.16015625 -0.048828125 0.07421875
-0.083984375 0.06640625 0.009765625 0.072265625 -0.044921875 -0.06640625 -0.076171875 -0.0546875
0.025390625 -0.068359375 0.13085938 0.068359375 0.009765625 0.23242188 0.080078125 -0.05859375
0.05859375 0.10546875 -0.044921875 -0.044921875 0.10546875 -0.0546875 0.0078125 0.017578125
0.06640625 0.01953125 -0.0078125 0.068359375 0.05078125 -0.02734375 -0.0 0.091796875
-0.041015625 -0.087890625 0.08203125 0.013671875 0.001953125 0.015625 0.02734375 0.052734375
0.056640625 0.078125 0.025390625 0.14257812 0.025390625 -0.05859375 0.083984375 0.03515625
-0.046875 -0.087890625 -0.068359375 -0.08203125 0.04296875 0.037109375 -0.091796875 -0.083984375
0.009765625 0.046875 0.20117188 0.068359375 0.111328125 0.18554688 0.017578125 -0.01171875
0.08203125 -0.02734375 -0.0546875 -0.080078125 0.083984375 0.033203125 0.03125 0.001953125
0.03125 -0.0546875 -0.05859375 -0.044921875 0.2578125 -0.0 -0.068359375 0.015625
0.03125 0.080078125 -0.03515625 -0.072265625 0.03515625 -0.025390625 0.119140625 -0.0625
-0.01953125 0.005859375 0.052734375 0.02734375 -0.017578125 -0.078125 0.068359375 0.03515625
0.0625 -0.033203125 0.080078125 0.05078125 0.076171875 -0.046875 0.05078125 -0.087890625
0.015625 -0.060546875 0.068359375 0.076171875 -0.078125 -0.076171875 -0.072265625 -0.021484375
-0.16796875 -0.005859375 0.013671875 0.095703125 0.048828125 -0.28320312 0.076171875 -0.0703125
-0.072265625 0.029296875 -0.13085938 0.021484375 -0.029296875 -0.12109375 -0.083984375 -0.076171875
0.0078125 -0.111328125 -0.044921875 0.22265625 0.0625 0.05078125 0.01953125 0.0078125
0.06640625 0.080078125 -0.06640625 0.01171875 0.0546875 -0.15429688 0.060546875 -0.0546875
-0.0546875 -0.095703125 0.08984375 0.083984375 -0.111328125 0.017578125 0.041015625 -0.0390625
-0.029296875 -0.06640625 0.0625 -0.05078125 -0.076171875 0.064453125 -0.033203125 -0.044921875
-0.076171875 -0.033203125 -0.05859375 -0.02734375 0.01171875 0.037109375 -0.078125 -0.009765625
-0.03125 -0.04296875 -0.037109375 -0.015625 -0.015625 0.0625 0.015625 0.02734375
0.0703125 -0.0234375 -0.009765625 -0.0390625 0.04296875 0.044921875 0.052734375 -0.076171875
0.0390625 -0.23632812 -0.1171875 -0.125 -0.005859375 -0.087890625 -0.005859375 0.009765625
-0.111328125 -0.005859375 0.044921875 0.009765625 0.033203125 -0.0703125 -0.0390625 0.0390625
0.087890625 -0.0078125 -0.025390625 -0.05078125 -0.21875 0.06640625 0.072265625 -0.0546875
0.064453125 -0.05078125 0.0078125 -0.0 -0.0703125 0.01171875 -0.07421875 -0.033203125
-0.0625 0.03515625 -0.072265625 0.033203125 0.037109375 0.025390625 -0.05078125 -0.060546875
-0.013671875 0.076171875 0.01953125 -0.044921875 0.009765625 -0.03125 -0.01953125 0.052734375

fc3.bias f4 [2]
00000000: 0000 00bc 0000 70bd
-0.0078125 -0.05859375
