wws_snn_final_weights.pth (torch, 84285 bytes, 6 tensors)

fc1.weight f4 [128, 20]
000000 00 00 30 3e 00 00 18 bd 00 00 68 3e 00 00 36 3e
       0.171875 -0.037109375 0.2265625 0.17773438
000010 00 00 66 3e 00 00 28 be 00 00 f0 3d 00 00 b8 3d
       0.22460938 -0.1640625 0.1171875 0.08984375
000020 00 00 10 be 00 00 84 bd 00 00 28 3e 00 00 54 be
       -0.140625 -0.064453125 0.1640625 -0.20703125
000030 00 00 38 3d 00 00 68 3d 00 00 70 3d 00 00 32 be
       0.044921875 0.056640625 0.05859375 -0.17382812
000040 00 00 e0 3c 00 00 84 3d 00 00 0e be 00 00 00 bc
       0.02734375 0.064453125 -0.13867188 -0.0078125
000050 00 00 84 bd 00 00 12 3e 00 00 08 3d 00 00 c0 3c
       -0.064453125 0.14257812 0.033203125 0.0234375
000060 00 00 98 bd 00 00 06 3e 00 00 08 3d 00 00 34 be
       -0.07421875 0.13085938 0.033203125 -0.17578125
000070 00 00 1e be 00 00 14 3e 00 00 b8 3d 00 00 5c 3e
       -0.15429688 0.14453125 0.08984375 0.21484375
000080 00 00 58 3e 00 00 8c bd 00 00 2c be 00 00 5e 3e
       0.2109375 -0.068359375 -0.16796875 0.21679688
000090 00 00 68 3d 00 00 4a be 00 00 66 3e 00 00 00 3e
       0.056640625 -0.19726562 0.22460938 0.125
0000a0 00 00 a0 bc 00 00 08 3d 00 00 28 3e 00 00 68 bd
       -0.01953125 0.033203125 0.1640625 -0.056640625
0000b0 00 00 0e 3e 00 00 14 3e 00 00 9c bd 00 00 46 be
       0.13867188 0.14453125 -0.076171875 -0.19335938
0000c0 00 00 e4 bd 00 00 d4 bd 00 00 a0 bd 00 00 e0 bc
       -0.111328125 -0.103515625 -0.078125 -0.02734375
0000d0 00 00 60 bd 00 00 64 be 00 00 4e 3e 00 00 8c 3d
       -0.0546875 -0.22265625 0.20117188 0.068359375
0000e0 00 00 56 3e 00 00 a8 3d 00 00 88 bd 00 00 32 be
       0.20898438 0.08203125 -0.06640625 -0.17382812
0000f0 00 00 46 be 00 00 0c 3e 00 00 94 3d 00 00 98 3d
       -0.19335938 0.13671875 0.072265625 0.07421875
000100 00 00 b0 3d 00 00 08 3e 00 00 22 be 00 00 36 3e
       0.0859375 0.1328125 -0.15820312 0.17773438
000110 00 00 cc bd 00 00 6c be 00 00 4a be 00 00 50 bd
       -0.099609375 -0.23046875 -0.19726562 -0.05078125
000120 00 00 d0 3d 00 00 00 00 00 00 0e 3e 00 00 78 3d
       0.1015625 0.0 0.13867188 0.060546875
000130 00 00 9c 3d 00 00 f4 3d 00 00 4a 3e 00 00 00 be
       0.076171875 0.119140625 0.19726562 -0.125
000140 00 00 00 80 00 00 98 bd 00 00 4a 3e 00 00 14 3e
       -0.0 -0.07421875 0.19726562 0.14453125
000150 00 00 d0 3c 00 00 d4 3d 00 00 04 be 00 00 50 3e
       0.025390625 0.103515625 -0.12890625 0.203125
000160 00 00 18 3e 00 00 3c 3e 00 00 40 3e 00 00 78 3e
       0.1484375 0.18359375 0.1875 0.2421875
000170 00 00 f0 3c 00 00 1a be 00 00 a0 bc 00 00 f0 3d
       0.029296875 -0.15039062 -0.01953125 0.1171875
000180 00 00 a0 3c 00 00 f0 3c 00 00 48 3e 00 00 62 3e
       0.01953125 0.029296875 0.1953125 0.22070312
000190 00 00 8c bd 00 00 68 bd 00 00 80 bd 00 00 4a 3e
       -0.068359375 -0.056640625 -0.0625 0.19726562
0001a0 00 00 28 3e 00 00 52 3e 00 00 9c 3d 00 00 d8 3d
       0.1640625 0.20507812 0.076171875 0.10546875
0001b0 00 00 08 3e 00 00 30 3e 00 00 90 3d 00 00 4a 3e
       0.1328125 0.171875 0.0703125 0.19726562
0001c0 00 00 40 3d 00 00 20 bc 00 00 32 be 00 00 06 3e
       0.046875 -0.009765625 -0.17382812 0.13085938
0001d0 00 00 f0 3d 00 00 5e 3e 00 00 44 3e 00 00 0e be
       0.1171875 0.21679688 0.19140625 -0.13867188
0001e0 00 00 10 3d 00 00 dc 3d 00 00 18 3e 00 00 e0 3d
       0.03515625 0.107421875 0.1484375 0.109375
0001f0 00 00 80 3b 00 00 08 3e 00 00 1c be 00 00 00 bd
       0.00390625 0.1328125 -0.15234375 -0.03125
000200 00 00 2a be 00 00 26 3e 00 00 20 3e 00 00 fc 3d
       -0.16601562 0.16210938 0.15625 0.123046875
000210 00 00 94 bd 00 00 c0 bb 00 00 ec 3d 00 00 54 be
       -0.072265625 -0.005859375 0.115234375 -0.20703125
000220 00 00 2e be 00 00 20 bd 00 00 2e be 00 00 44 be
       -0.16992188 -0.0390625 -0.16992188 -0.19140625
000230 00 00 a4 bd 00 00 04 be 00 00 68 be 00 00 08 3d
       -0.080078125 -0.12890625 -0.2265625 0.033203125
000240 00 00 4e be 00 00 c4 3d 00 00 88 3d 00 00 30 be
       -0.20117188 0.095703125 0.06640625 -0.171875
000250 00 00 4e be 00 00 18 3d 00 00 e0 3c 00 00 9c 3d
       -0.20117188 0.037109375 0.02734375 0.076171875
000260 00 00 5e be 00 00 42 be 00 00 88 3d 00 00 a8 bd
       -0.21679688 -0.18945312 0.06640625 -0.08203125
000270 00 00 a4 bd 00 00 2e be 00 00 20 3e 00 00 20 3e
       -0.080078125 -0.16992188 0.15625 0.15625
000280 00 00 94 bd 00 00 3e 3e 00 00 40 bd 00 00 36 3e
       -0.072265625 0.18554688 -0.046875 0.17773438
000290 00 00 e4 bd 00 00 bc 3d 00 00 06 3e 00 00 58 be
       -0.111328125 0.091796875 0.13085938 -0.2109375
0002a0 00 00 18 3d 00 00 2c 3e 00 00 10 3d 00 00 44 3e
       0.037109375 0.16796875 0.03515625 0.19140625
0002b0 00 00 10 bd 00 00 20 3e 00 00 64 be 00 00 30 3e
       -0.03515625 0.15625 -0.22265625 0.171875
0002c0 00 00 4c be 00 00 26 3e 00 00 44 3e 00 00 2e be
       -0.19921875 0.16210938 0.19140625 -0.16992188
0002d0 00 00 68 bd 00 00 ac 3d 00 00 b8 bd 00 00 dc bd
       -0.056640625 0.083984375 -0.08984375 -0.107421875
0002e0 00 00 56 3e 00 00 b0 3c 00 00 fc bd 00 00 c0 3c
       0.20898438 0.021484375 -0.123046875 0.0234375
0002f0 00 00 2c 3e 00 00 e0 bd 00 00 a8 bd 00 00 a8 3d
       0.16796875 -0.109375 -0.08203125 0.08203125
000300 00 00 88 bd 00 00 e0 3c 00 00 f4 3d 00 00 42 be
       -0.06640625 0.02734375 0.119140625 -0.18945312
000310 00 00 e4 bd 00 00 e0 3d 00 00 28 3d 00 00 78 bd
       -0.111328125 0.109375 0.041015625 -0.060546875
000320 00 00 3c be 00 00 40 be 00 00 60 bd 00 00 b4 3d
       -0.18359375 -0.1875 -0.0546875 0.087890625
000330 00 00 18 bd 00 00 1a be 00 00 40 3e 00 00 80 3c
       -0.037109375 -0.15039062 0.1875 0.015625
000340 00 00 b8 3d 00 00 14 be 00 00 54 3e 00 00 58 3e
       0.08984375 -0.14453125 0.20703125 0.2109375
000350 00 00 90 3c 00 00 94 bd 00 00 e4 bd 00 00 58 3d
       0.017578125 -0.072265625 -0.111328125 0.052734375
000360 00 00 88 3d 00 00 0c 3e 00 00 f0 3d 00 00 52 be
       0.06640625 0.13671875 0.1171875 -0.20507812
000370 00 00 90 3c 00 00 58 bd 00 00 4a be 00 00 f0 bd
       0.017578125 -0.052734375 -0.19726562 -0.1171875
000380 00 00 58 bd 00 00 12 be 00 00 54 3e 00 00 06 3e
       -0.052734375 -0.14257812 0.20703125 0.13085938
000390 00 00 c8 bd 00 00 20 3e 00 00 56 be 00 00 d4 bd
       -0.09765625 0.15625 -0.20898438 -0.103515625
0003a0 00 00 fc 3d 00 00 6a 3e 00 00 46 3e 00 00 28 bd
       0.123046875 0.22851562 0.19335938 -0.041015625
0003b0 00 00 08 be 00 00 46 be 00 00 18 be 00 00 24 3e
       -0.1328125 -0.19335938 -0.1484375 0.16015625
0003c0 00 00 10 3e 00 00 3a be 00 00 38 be 00 00 42 3e
       0.140625 -0.18164062 -0.1796875 0.18945312
0003d0 00 00 80 3d 00 00 56 3e 00 00 2e be 00 00 00 3d
       0.0625 0.20898438 -0.16992188 0.03125
0003e0 00 00 3a be 00 00 00 3c 00 00 68 3e 00 00 0a 3e
       -0.18164062 0.0078125 0.2265625 0.13476562
0003f0 00 00 e0 3c 00 00 38 be 00 00 f4 bd 00 00 46 3e
       0.02734375 -0.1796875 -0.119140625 0.19335938

fc1.bias f4 [128]
000000 00 00 3a be 00 00 cc bd 00 00 d0 bc 00 00 60 bc
       -0.18164062 -0.099609375 -0.025390625 -0.013671875
000010 00 00 5c be 00 00 24 3e 00 00 90 bc 00 00 40 bd
       -0.21484375 0.16015625 -0.017578125 -0.046875
000020 00 00 d4 bd 00 00 e0 bd 00 00 5a 3e 00 00 c0 3c
       -0.103515625 -0.109375 0.21289062 0.0234375
000030 00 00 b4 3d 00 00 f0 3c 00 00 a4 bd 00 00 90 3c
       0.087890625 0.029296875 -0.080078125 0.017578125
000040 00 00 20 bd 00 00 50 bd 00 00 ac 3d 00 00 dc bd
       -0.0390625 -0.05078125 0.083984375 -0.107421875
000050 00 00 d0 3d 00 00 50 be 00 00 32 be 00 00 16 3e
       0.1015625 -0.203125 -0.17382812 0.14648438
000060 00 00 28 be 00 00 dc bd 00 00 16 3e 00 00 d4 bd
       -0.1640625 -0.107421875 0.14648438 -0.103515625
000070 00 00 c0 bc 00 00 1e be 00 00 dc 3d 00 00 18 bd
       -0.0234375 -0.15429688 0.107421875 -0.037109375
000080 00 00 06 3e 00 00 48 3d 00 00 2a be 00 00 9c bd
       0.13085938 0.048828125 -0.16601562 -0.076171875
000090 00 00 40 bd 00 00 c0 3c 00 00 b0 bd 00 00 84 3d
       -0.046875 0.0234375 -0.0859375 0.064453125
0000a0 00 00 ac 3d 00 00 fc 3d 00 00 2c 3e 00 00 44 3e
       0.083984375 0.123046875 0.16796875 0.19140625
0000b0 00 00 38 be 00 00 20 be 00 00 10 bd 00 00 40 3e
       -0.1796875 -0.15625 -0.03515625 0.1875
0000c0 00 00 e4 3d 00 00 08 3e 00 00 c0 3d 00 00 20 be
       0.111328125 0.1328125 0.09375 -0.15625
0000d0 00 00 94 3d 00 00 78 3d 00 00 88 3d 00 00 30 3d
       0.072265625 0.060546875 0.06640625 0.04296875
0000e0 00 00 20 3c 00 00 30 3d 00 00 bc bd 00 00 1e be
       0.009765625 0.04296875 -0.091796875 -0.15429688
0000f0 00 00 12 3e 00 00 c4 3d 00 00 0e be 00 00 dc bd
       0.14257812 0.095703125 -0.13867188 -0.107421875
000100 00 00 2a 3e 00 00 28 3d 00 00 2e be 00 00 18 bd
       0.16601562 0.041015625 -0.16992188 -0.037109375
000110 00 00 34 be 00 00 5a 3e 00 00 c0 3d 00 00 4c 3e
       -0.17578125 0.21289062 0.09375 0.19921875
000120 00 00 3c 3e 00 00 48 3d 00 00 8c 3d 00 00 c0 3c
       0.18359375 0.048828125 0.068359375 0.0234375
000130 00 00 e0 3d 00 00 d0 3c 00 00 30 bd 00 00 a8 bd
       0.109375 0.025390625 -0.04296875 -0.08203125
000140 00 00 e4 bd 00 00 30 be 00 00 08 3e 00 00 2c be
       -0.111328125 -0.171875 0.1328125 -0.16796875
000150 00 00 dc 3d 00 00 44 3e 00 00 48 3d 00 00 20 3c
       0.107421875 0.19140625 0.048828125 0.009765625
000160 00 00 b8 bd 00 00 2a 3e 00 00 30 3d 00 00 a0 3c
       -0.08984375 0.16601562 0.04296875 0.01953125
000170 00 00 e8 bd 00 00 08 3e 00 00 00 80 00 00 5e 3e
       -0.11328125 0.1328125 -0.0 0.21679688
000180 00 00 48 bd 00 00 0a 3e 00 00 58 3d 00 00 42 be
       -0.048828125 0.13476562 0.052734375 -0.18945312
000190 00 00 ec 3d 00 00 00 3e 00 00 08 3e 00 00 c0 3c
       0.115234375 0.125 0.1328125 0.0234375
0001a0 00 00 12 3e 00 00 f0 bc 00 00 00 bb 00 00 f8 bd
       0.14257812 -0.029296875 -0.001953125 -0.12109375
0001b0 00 00 00 80 00 00 40 3c 00 00 3a be 00 00 ac bd
       -0.0 0.01171875 -0.18164062 -0.083984375
0001c0 00 00 0e be 00 00 1c be 00 00 00 bb 00 00 00 3c
       -0.13867188 -0.15234375 -0.001953125 0.0078125
0001d0 00 00 88 3d 00 00 10 bd 00 00 50 3e 00 00 60 bd
       0.06640625 -0.03515625 0.203125 -0.0546875
0001e0 00 00 e0 3d 00 00 4e 3e 00 00 ec 3d 00 00 ac bd
       0.109375 0.20117188 0.115234375 -0.083984375
0001f0 00 00 04 be 00 00 2e 3e 00 00 1a 3e 00 00 d0 3c
       -0.12890625 0.16992188 0.15039062 0.025390625

fc2.weight f4 [128, 128]
000000 00 00 9f 3e 00 00 18 bd 00 00 98 bd 00 00 58 3d
       0.31054688 -0.037109375 -0.07421875 0.052734375
000010 00 00 40 3c 00 00 c0 3b 00 00 d0 3c 00 00 9c bd
       0.01171875 0.005859375 0.025390625 -0.076171875
000020 00 00 e0 bc 00 00 00 80 00 00 10 3d 00 00 a0 3c
       -0.02734375 -0.0 0.03515625 0.01953125
000030 00 00 30 3d 00 00 10 3d 00 00 b4 bd 00 00 a0 3d
       0.04296875 0.03515625 -0.087890625 0.078125
000040 00 00 18 3d 00 00 a8 bd 00 00 38 3d 00 00 00 bd
       0.037109375 -0.08203125 0.044921875 -0.03125
000050 00 00 80 bc 00 80 0b 3f 00 00 c0 bb 00 00 9c bd
       -0.015625 0.5449219 -0.005859375 -0.076171875
000060 00 00 bc 3d 00 00 30 bd 00 00 80 3b 00 00 a0 bd
       0.091796875 -0.04296875 0.00390625 -0.078125
000070 00 00 70 3d 00 00 a0 3d 00 00 90 bc 00 00 80 bc
       0.05859375 0.078125 -0.017578125 -0.015625
000080 00 00 80 3d 00 00 ac bd 00 00 00 80 00 00 40 bc
       0.0625 -0.083984375 -0.0 -0.01171875
000090 00 00 60 bd 00 00 10 3d 00 00 38 bd 00 00 e0 3c
       -0.0546875 0.03515625 -0.044921875 0.02734375
0000a0 00 00 10 3d 00 00 98 3d 00 00 a0 bd 00 00 a0 3d
       0.03515625 0.07421875 -0.078125 0.078125
0000b0 00 00 10 bd 00 00 30 3d 00 00 3c 3e 00 00 b4 bd
       -0.03515625 0.04296875 0.18359375 -0.087890625
0000c0 00 00 68 3d 00 00 00 bb 00 00 00 3c 00 00 28 3d
       0.056640625 -0.001953125 0.0078125 0.041015625
0000d0 00 00 98 bd 00 00 98 bd 00 00 58 bd 00 00 e0 bc
       -0.07421875 -0.07421875 -0.052734375 -0.02734375
0000e0 00 00 a0 bc 00 00 00 bc 00 00 b0 bc 00 00 0e 3e
       -0.01953125 -0.0078125 -0.021484375 0.13867188
0000f0 00 00 80 3d 00 00 50 3d 00 00 e0 3c 00 00 70 3d
       0.0625 0.05078125 0.02734375 0.05859375
000100 00 00 00 bc 00 00 b0 bd 00 00 b0 3d 00 00 a0 bd
       -0.0078125 -0.0859375 0.0859375 -0.078125
000110 00 00 30 3d 00 00 80 3d 00 00 a8 3d 00 00 00 80
       0.04296875 0.0625 0.08203125 -0.0
000120 00 00 a0 bd 00 00 40 3c 00 00 68 3d 00 00 58 bd
       -0.078125 0.01171875 0.056640625 -0.052734375
000130 00 00 c0 3b 00 00 60 bc 00 00 00 3c 00 00 ac 3d
       0.005859375 -0.013671875 0.0078125 0.083984375
000140 00 00 40 bc 00 00 b0 3c 00 00 94 bd 00 00 40 3c
       -0.01171875 0.021484375 -0.072265625 0.01171875
000150 00 00 60 3d 00 00 c0 bd 00 00 70 3d 00 00 10 bd
       0.0546875 -0.09375 0.05859375 -0.03515625
000160 00 00 c0 bb 00 00 8c 3d 00 00 c0 bb 00 00 e0 3c
       -0.005859375 0.068359375 -0.005859375 0.02734375
000170 00 00 90 bd 00 00 f0 3c 00 00 48 3d 00 00 90 bc
       -0.0703125 0.029296875 0.048828125 -0.017578125
000180 00 00 90 3c 00 00 b8 bd 00 00 68 bd 00 00 10 3d
       0.017578125 -0.08984375 -0.056640625 0.03515625
000190 00 00 48 3d 00 00 00 3d 00 00 90 3c 00 00 90 3c
       0.048828125 0.03125 0.017578125 0.017578125
0001a0 00 00 78 bd 00 00 b0 bd 00 00 a0 3d 00 00 90 bd
       -0.060546875 -0.0859375 0.078125 -0.0703125
0001b0 00 00 d8 bd 00 00 90 bd 00 00 00 3b 00 00 40 bc
       -0.10546875 -0.0703125 0.001953125 -0.01171875
0001c0 00 00 b0 bd 00 00 90 bd 00 00 00 80 00 00 60 3c
       -0.0859375 -0.0703125 -0.0 0.013671875
0001d0 00 00 80 3b 00 00 48 3d 00 00 00 bb 00 00 58 bd
       0.00390625 0.048828125 -0.001953125 -0.052734375
0001e0 00 00 68 3d 00 00 50 3d 00 00 a4 bd 00 00 10 3d
       0.056640625 0.05078125 -0.080078125 0.03515625
0001f0 00 00 08 3d 00 00 00 bd 00 00 00 3b 00 00 18 bd
       0.033203125 -0.03125 0.001953125 -0.037109375
000200 00 00 26 be 00 00 58 bd 00 00 60 3c 00 00 80 3d
       -0.16210938 -0.052734375 0.013671875 0.0625
000210 00 00 cc 3d 00 00 8c 3d 00 00 c0 bb 00 00 78 bd
       0.099609375 0.068359375 -0.005859375 -0.060546875
000220 00 00 68 bd 00 00 30 bd 00 00 10 bd 00 00 10 3d
       -0.056640625 -0.04296875 -0.03515625 0.03515625
000230 00 00 20 bc 00 00 68 3d 00 00 18 3d 00 00 c0 3d
       -0.009765625 0.056640625 0.037109375 0.09375
000240 00 00 68 bd 00 00 18 3d 00 00 98 3d 00 00 0c 3e
       -0.056640625 0.037109375 0.07421875 0.13671875
000250 00 00 60 3c 00 00 26 3e 00 00 98 bd 00 00 00 3b
       0.013671875 0.16210938 -0.07421875 0.001953125
000260 00 00 80 3b 00 00 28 bd 00 00 58 bd 00 00 80 bb
       0.00390625 -0.041015625 -0.052734375 -0.00390625
000270 00 00 38 3d 00 00 12 3e 00 00 c0 3c 00 00 a0 3c
       0.044921875 0.14257812 0.0234375 0.01953125
000280 00 00 70 bd 00 00 8c 3d 00 00 28 3d 00 00 cc 3d
       -0.05859375 0.068359375 0.041015625 0.099609375
000290 00 00 d0 3c 00 00 94 3d 00 00 8c 3d 00 00 50 3d
       0.025390625 0.072265625 0.068359375 0.05078125
0002a0 00 00 ac bd 00 00 60 bc 00 00 a0 bd 00 00 9c 3d
       -0.083984375 -0.013671875 -0.078125 0.076171875
0002b0 00 00 d0 3c 00 00 80 bd 00 00 80 3b 00 00 a0 3c
       0.025390625 -0.0625 0.00390625 0.01953125
0002c0 00 00 f0 3c 00 00 68 bd 00 00 a4 3d 00 00 90 3d
       0.029296875 -0.056640625 0.080078125 0.0703125
0002d0 00 00 60 3c 00 00 80 bb 00 00 18 3d 00 00 a8 bd
       0.013671875 -0.00390625 0.037109375 -0.08203125
0002e0 00 00 02 3e 00 00 60 bd 00 00 38 3d 00 00 c8 3d
       0.12695312 -0.0546875 0.044921875 0.09765625
0002f0 00 00 78 bd 00 00 80 bd 00 00 9c bd 00 00 d0 3c
       -0.060546875 -0.0625 -0.076171875 0.025390625
000300 00 00 00 bb 00 00 cc 3d 00 00 94 bd 00 00 58 bd
       -0.001953125 0.099609375 -0.072265625 -0.052734375
000310 00 00 30 bd 00 00 70 bd 00 00 a8 3d 00 00 b0 3d
       -0.04296875 -0.05859375 0.08203125 0.0859375
000320 00 00 10 3d 00 00 80 bc 00 00 60 bc 00 00 00 bc
       0.03515625 -0.015625 -0.013671875 -0.0078125
000330 00 00 10 bd 00 00 08 3d 00 00 60 3c 00 00 40 3d
       -0.03515625 0.033203125 0.013671875 0.046875
000340 00 00 00 bd 00 00 e0 bc 00 00 e0 3c 00 00 84 3d
       -0.03125 -0.02734375 0.02734375 0.064453125
000350 00 00 88 bd 00 00 9c 3d 00 00 48 bd 00 00 40 bc
       -0.06640625 0.076171875 -0.048828125 -0.01171875
000360 00 00 78 3d 00 00 84 3d 00 00 60 3c 00 00 18 bd
       0.060546875 0.064453125 0.013671875 -0.037109375
000370 00 00 c0 3b 00 00 80 3c 00 00 70 bd 00 00 08 3d
       0.005859375 0.015625 -0.05859375 0.033203125
000380 00 00 44 3e 00 00 30 3d 00 00 80 bb 00 00 68 bd
       0.19140625 0.04296875 -0.00390625 -0.056640625
000390 00 00 80 3c 00 00 84 3d 00 00 18 bd 00 00 a0 bd
       0.015625 0.064453125 -0.037109375 -0.078125
0003a0 00 00 70 bd 00 00 a8 3d 00 00 e0 3c 00 00 90 bd
       -0.05859375 0.08203125 0.02734375 -0.0703125
0003b0 00 00 1e 3e 00 00 f0 3c 00 00 80 bd 00 00 84 3d
       0.15429688 0.029296875 -0.0625 0.064453125
0003c0 00 00 a0 bd 00 00 60 3d 00 00 b8 3d 00 00 30 3d
       -0.078125 0.0546875 0.08984375 0.04296875
0003d0 00 00 68 3d 00 00 88 bd 00 00 90 3d 00 00 58 3d
       0.056640625 -0.06640625 0.0703125 0.052734375
0003e0 00 00 80 bd 00 00 50 bd 00 00 c4 3d 00 00 00 3d
       -0.0625 -0.05078125 0.095703125 0.03125
0003f0 00 00 00 3c 00 00 20 bd 00 00 84 3d 00 00 38 3d
       0.0078125 -0.0390625 0.064453125 0.044921875

fc2.bias f4 [128]
000000 00 00 30 bd 00 00 84 3d 00 00 88 bd 00 00 d0 3c
       -0.04296875 0.064453125 -0.06640625 0.025390625
000010 00 00 ac 3d 00 00 00 3c 00 00 18 bd 00 00 84 bd
       0.083984375 0.0078125 -0.037109375 -0.064453125
000020 00 00 c0 3b 00 00 90 bc 00 00 9c bd 00 00 28 3d
       0.005859375 -0.017578125 -0.076171875 0.041015625
000030 00 00 a0 bc 00 00 30 bd 00 00 e0 bc 00 00 94 bd
       -0.01953125 -0.04296875 -0.02734375 -0.072265625
000040 00 00 bc bd 00 00 48 bd 00 00 38 3d 00 00 00 00
       -0.091796875 -0.048828125 0.044921875 0.0
000050 00 00 8c 3d 00 00 00 3d 00 00 40 3c 00 00 58 bd
       0.068359375 0.03125 0.01171875 -0.052734375
000060 00 00 00 3c 00 00 94 3d 00 00 c0 3c 00 00 68 3d
       0.0078125 0.072265625 0.0234375 0.056640625
000070 00 00 88 bd 00 00 00 80 00 00 00 bb 00 00 50 bd
       -0.06640625 -0.0 -0.001953125 -0.05078125
000080 00 00 a0 bc 00 00 a0 bd 00 00 28 bd 00 00 00 3c
       -0.01953125 -0.078125 -0.041015625 0.0078125
000090 00 00 28 3d 00 00 80 bc 00 00 94 3d 00 00 48 bd
       0.041015625 -0.015625 0.072265625 -0.048828125
0000a0 00 00 28 bd 00 00 00 3d 00 00 58 3d 00 00 98 3d
       -0.041015625 0.03125 0.052734375 0.07421875
0000b0 00 00 90 3c 00 00 08 bd 00 00 00 00 00 00 60 3d
       0.017578125 -0.033203125 0.0 0.0546875
0000c0 00 00 10 3d 00 00 20 3c 00 00 48 3d 00 00 40 bc
       0.03515625 0.009765625 0.048828125 -0.01171875
0000d0 00 00 84 bd 00 00 38 3d 00 00 38 bd 00 00 a8 bd
       -0.064453125 0.044921875 -0.044921875 -0.08203125
0000e0 00 00 88 bd 00 00 e0 3c 00 00 d0 3c 00 00 20 bc
       -0.06640625 0.02734375 0.025390625 -0.009765625
0000f0 00 00 98 3d 00 00 98 3d 00 00 80 bd 00 00 00 3b
       0.07421875 0.07421875 -0.0625 0.001953125
000100 00 00 78 bd 00 00 a8 3d 00 00 38 bd 00 00 b0 3c
       -0.060546875 0.08203125 -0.044921875 0.021484375
000110 00 00 80 bc 00 00 20 bc 00 00 18 bd 00 00 a0 bd
       -0.015625 -0.009765625 -0.037109375 -0.078125
000120 00 00 60 bd 00 00 9c 3d 00 00 8c 3d 00 00 90 3c
       -0.0546875 0.076171875 0.068359375 0.017578125
000130 00 00 94 3d 00 00 00 3b 00 00 78 3d 00 00 18 bd
       0.072265625 0.001953125 0.060546875 -0.037109375
000140 00 00 9c bd 00 00 20 3c 00 00 f0 bc 00 00 8c 3d
       -0.076171875 0.009765625 -0.029296875 0.068359375
000150 00 00 c4 3d 00 00 80 bb 00 00 20 3d 00 00 f0 bc
       0.095703125 -0.00390625 0.0390625 -0.029296875
000160 00 00 60 bc 00 00 38 bd 00 00 28 bd 00 00 d0 bc
       -0.013671875 -0.044921875 -0.041015625 -0.025390625
000170 00 00 40 bd 00 00 84 bd 00 00 98 3d 00 00 d0 bc
       -0.046875 -0.064453125 0.07421875 -0.025390625
000180 00 00 c0 bb 00 00 00 80 00 00 50 bd 00 00 40 3d
       -0.005859375 -0.0 -0.05078125 0.046875
000190 00 00 50 3d 00 00 30 bd 00 00 8c 3d 00 00 40 bd
       0.05078125 -0.04296875 0.068359375 -0.046875
0001a0 00 00 60 bc 00 00 28 3d 00 00 80 3d 00 00 90 3d
       -0.013671875 0.041015625 0.0625 0.0703125
0001b0 00 00 50 3d 00 00 9c bd 00 00 08 bd 00 00 bc 3d
       0.05078125 -0.076171875 -0.033203125 0.091796875
0001c0 00 00 28 bd 00 00 a0 bc 00 00 e0 bc 00 00 30 3d
       -0.041015625 -0.01953125 -0.02734375 0.04296875
0001d0 00 00 90 bc 00 00 20 bc 00 00 68 bd 00 00 b4 bd
       -0.017578125 -0.009765625 -0.056640625 -0.087890625
0001e0 00 00 90 3c 00 00 84 bd 00 00 38 3d 00 00 a0 3c
       0.017578125 -0.064453125 0.044921875 0.01953125
0001f0 00 00 20 3c 00 00 a8 3d 00 00 d0 3c 00 00 40 bd
       0.009765625 0.08203125 0.025390625 -0.046875

fc3.weight f4 [2, 128]
000000 00 00 38 3d 00 00 d0 bc 00 00 88 3d 00 00 30 bd
       0.044921875 -0.025390625 0.06640625 -0.04296875
000010 00 00 90 3e 00 00 c8 3d 00 00 48 3d 00 00 a4 3d
       0.28125 0.09765625 0.048828125 0.080078125
000020 00 00 66 3e 00 00 20 3d 00 00 60 bd 00 00 40 bc
       0.22460938 0.0390625 -0.0546875 -0.01171875
000030 00 00 10 3d 00 00 94 3e 00 00 c0 bc 00 00 fc 3d
       0.03515625 0.2890625 -0.0234375 0.123046875
000040 00 00 b0 3c 00 00 00 3b 00 00 00 3e 00 00 90 3c
       0.021484375 0.001953125 0.125 0.017578125
000050 00 00 40 3c 00 00 20 3e 00 00 50 bd 00 00 84 3d
       0.01171875 0.15625 -0.05078125 0.064453125
000060 00 00 ac bd 00 00 80 3d 00 00 00 3c 00 00 9c 3d
       -0.083984375 0.0625 0.0078125 0.076171875
000070 00 00 38 bd 00 00 8c bd 00 00 9c bd 00 00 70 bd
       -0.044921875 -0.068359375 -0.076171875 -0.05859375
000080 00 00 d0 3c 00 00 84 bd 00 00 06 3e 00 00 8c 3d
       0.025390625 -0.064453125 0.13085938 0.068359375
000090 00 00 c0 3b 00 00 6a 3e 00 00 a0 3d 00 00 78 bd
       0.005859375 0.22851562 0.078125 -0.060546875
0000a0 00 00 78 3d 00 00 dc 3d 00 00 38 bd 00 00 40 bd
       0.060546875 0.107421875 -0.044921875 -0.046875
0000b0 00 00 d4 3d 00 00 60 bd 00 00 00 3c 00 00 80 3c
       0.103515625 -0.0546875 0.0078125 0.015625
0000c0 00 00 58 3d 00 00 a0 3c 00 00 20 bc 00 00 90 3d
       0.052734375 0.01953125 -0.009765625 0.0703125
0000d0 00 00 20 3d 00 00 f0 bc 00 00 00 bb 00 00 a0 3d
       0.0390625 -0.029296875 -0.001953125 0.078125
0000e0 00 00 28 bd 00 00 b8 bd 00 00 a4 3d 00 00 00 bb
       -0.041015625 -0.08984375 0.080078125 -0.001953125
0000f0 00 00 00 3b 00 00 80 3c 00 00 e0 3c 00 00 40 3d
       0.001953125 0.015625 0.02734375 0.046875
000100 00 00 80 3d 00 00 9c 3d 00 00 60 3c 00 00 12 3e
       0.0625 0.076171875 0.013671875 0.14257812
000110 00 00 d0 3c 00 00 78 bd 00 00 90 3d 00 00 08 3d
       0.025390625 -0.060546875 0.0703125 0.033203125
000120 00 00 40 bd 00 00 b8 bd 00 00 8c bd 00 00 a8 bd
       -0.046875 -0.08984375 -0.068359375 -0.08203125
000130 00 00 30 3d 00 00 18 3d 00 00 c0 bd 00 00 ac bd
       0.04296875 0.037109375 -0.09375 -0.083984375
000140 00 00 20 3c 00 00 20 3d 00 00 48 3e 00 00 80 3d
       0.009765625 0.0390625 0.1953125 0.0625
000150 00 00 e4 3d 00 00 3c 3e 00 00 40 3c 00 00 60 bc
       0.111328125 0.18359375 0.01171875 -0.013671875
000160 00 00 a4 3d 00 00 e0 bc 00 00 60 bd 00 00 a8 bd
       0.080078125 -0.02734375 -0.0546875 -0.08203125
000170 00 00 98 3d 00 00 f0 3c 00 00 f0 3c 00 00 00 3b
       0.07421875 0.029296875 0.029296875 0.001953125
000180 00 00 00 3d 00 00 60 bd 00 00 78 bd 00 00 38 bd
       0.03125 -0.0546875 -0.060546875 -0.044921875
000190 00 00 83 3e 00 00 00 bb 00 00 8c bd 00 00 a0 3c
       0.25585938 -0.001953125 -0.068359375 0.01953125
0001a0 00 00 08 3d 00 00 a4 3d 00 00 10 bd 00 00 94 bd
       0.033203125 0.080078125 -0.03515625 -0.072265625
0001b0 00 00 08 3d 00 00 d0 bc 00 00 f4 3d 00 00 80 bd
       0.033203125 -0.025390625 0.119140625 -0.0625
0001c0 00 00 b0 bc 00 00 c0 3b 00 00 58 3d 00 00 e0 3c
       -0.021484375 0.005859375 0.052734375 0.02734375
0001d0 00 00 90 bc 00 00 a0 bd 00 00 78 3d 00 00 f0 3c
       -0.017578125 -0.078125 0.060546875 0.029296875
0001e0 00 00 80 3d 00 00 10 bd 00 00 a0 3d 00 00 50 3d
       0.0625 -0.03515625 0.078125 0.05078125
0001f0 00 00 9c 3d 00 00 40 bd 00 00 50 3d 00 00 b8 bd
       0.076171875 -0.046875 0.05078125 -0.08984375
000200 00 00 60 3c 00 00 78 bd 00 00 8c 3d 00 00 9c 3d
       0.013671875 -0.060546875 0.068359375 0.076171875
000210 00 00 a0 bd 00 00 9c bd 00 00 90 bd 00 00 b0 bc
       -0.078125 -0.076171875 -0.0703125 -0.021484375
000220 00 00 2a be 00 00 c0 bb 00 00 60 3c 00 00 c4 3d
       -0.16601562 -0.005859375 0.013671875 0.095703125
000230 00 00 48 3d 00 00 91 be 00 00 9c 3d 00 00 94 bd
       0.048828125 -0.28320312 0.076171875 -0.072265625
000240 00 00 94 bd 00 00 f0 3c 00 00 06 be 00 00 b0 3c
       -0.072265625 0.029296875 -0.13085938 0.021484375
000250 00 00 00 bd 00 00 f4 bd 00 00 ac bd 00 00 8c bd
       -0.03125 -0.119140625 -0.083984375 -0.068359375
000260 00 00 00 3c 00 00 e4 bd 00 00 38 bd 00 00 5c 3e
       0.0078125 -0.111328125 -0.044921875 0.21484375
000270 00 00 80 3d 00 00 60 3d 00 00 a0 3c 00 00 20 3c
       0.0625 0.0546875 0.01953125 0.009765625
000280 00 00 88 3d 00 00 a8 3d 00 00 88 bd 00 00 40 3c
       0.06640625 0.08203125 -0.06640625 0.01171875
000290 00 00 48 3d 00 00 1a be 00 00 80 3d 00 00 60 bd
       0.048828125 -0.15039062 0.0625 -0.0546875
0002a0 00 00 50 bd 00 00 c4 bd 00 00 b8 3d 00 00 ac 3d
       -0.05078125 -0.095703125 0.08984375 0.083984375
0002b0 00 00 e0 bd 00 00 a0 3c 00 00 28 3d 00 00 28 bd
       -0.109375 0.01953125 0.041015625 -0.041015625
0002c0 00 00 b0 bc 00 00 88 bd 00 00 80 3d 00 00 50 bd
       -0.021484375 -0.06640625 0.0625 -0.05078125
0002d0 00 00 84 bd 00 00 80 3d 00 00 08 bd 00 00 38 bd
       -0.064453125 0.0625 -0.033203125 -0.044921875
0002e0 00 00 9c bd 00 00 08 bd 00 00 68 bd 00 00 90 bc
       -0.076171875 -0.033203125 -0.056640625 -0.017578125
0002f0 00 00 40 3c 00 00 18 3d 00 00 a0 bd 00 00 00 bc
       0.01171875 0.037109375 -0.078125 -0.0078125
000300 00 00 18 bd 00 00 38 bd 00 00 08 bd 00 00 80 bc
       -0.037109375 -0.044921875 -0.033203125 -0.015625
000310 00 00 80 bc 00 00 80 3d 00 00 a0 3c 00 00 f0 3c
       -0.015625 0.0625 0.01953125 0.029296875
000320 00 00 90 3d 00 00 c0 bc 00 00 20 bc 00 00 20 bd
       0.0703125 -0.0234375 -0.009765625 -0.0390625
000330 00 00 30 3d 00 00 38 3d 00 00 30 3d 00 00 9c bd
       0.04296875 0.044921875 0.04296875 -0.076171875
000340 00 00 20 3d 00 00 66 be 00 00 e4 bd 00 00 f4 bd
       0.0390625 -0.22460938 -0.111328125 -0.119140625
000350 00 00 c0 bb 00 00 b0 bd 00 00 00 80 00 00 40 3c
       -0.005859375 -0.0859375 -0.0 0.01171875
000360 00 00 e0 bd 00 00 c0 bb 00 00 38 3d 00 00 20 3c
       -0.109375 -0.005859375 0.044921875 0.009765625
000370 00 00 00 3d 00 00 88 bd 00 00 20 bd 00 00 20 3d
       0.03125 -0.06640625 -0.0390625 0.0390625
000380 00 00 b4 3d 00 00 00 bc 00 00 d0 bc 00 00 50 bd
       0.087890625 -0.0078125 -0.025390625 -0.05078125
000390 00 00 5e be 00 00 88 3d 00 00 90 3d 00 00 68 bd
       -0.21679688 0.06640625 0.0703125 -0.056640625
0003a0 00 00 80 3d 00 00 50 bd 00 00 00 3c 00 00 00 00
       0.0625 -0.05078125 0.0078125 0.0
0003b0 00 00 90 bd 00 00 40 3c 00 00 98 bd 00 00 08 bd
       -0.0703125 0.01171875 -0.07421875 -0.033203125
0003c0 00 00 80 bd 00 00 10 3d 00 00 94 bd 00 00 08 3d
       -0.0625 0.03515625 -0.072265625 0.033203125
0003d0 00 00 18 3d 00 00 d0 3c 00 00 40 bd 00 00 48 bd
       0.037109375 0.025390625 -0.046875 -0.048828125
0003e0 00 00 60 bc 00 00 9c 3d 00 00 b0 3c 00 00 38 bd
       -0.013671875 0.076171875 0.021484375 -0.044921875
0003f0 00 00 20 3c 00 00 00 bd 00 00 a0 bc 00 00 58 3d
       0.009765625 -0.03125 -0.01953125 0.052734375

fc3.bias f4 [2]
000000 00 00 00 bc 00 00 70 bd
       -0.0078125 -0.05859375
