fpga_weights_qat/B1.npy (npy, 640 bytes, 1 tensors)

array f4 [128]
000000 00 00 3c be 00 00 cc bd 00 00 e0 bc 00 00 60 bc
       -0.18359375 -0.099609375 -0.02734375 -0.013671875
000010 00 00 5c be 00 00 24 3e 00 00 90 bc 00 00 50 bd
       -0.21484375 0.16015625 -0.017578125 -0.05078125
000020 00 00 d4 bd 00 00 e4 bd 00 00 5a 3e 00 00 d0 3c
       -0.103515625 -0.111328125 0.21289062 0.025390625
000030 00 00 b4 3d 00 00 00 3d 00 00 a4 bd 00 00 90 3c
       0.087890625 0.03125 -0.080078125 0.017578125
000040 00 00 20 bd 00 00 50 bd 00 00 ac 3d 00 00 dc bd
       -0.0390625 -0.05078125 0.083984375 -0.107421875
000050 00 00 cc 3d 00 00 50 be 00 00 32 be 00 00 16 3e
       0.099609375 -0.203125 -0.17382812 0.14648438
000060 00 00 28 be 00 00 dc bd 00 00 16 3e 00 00 d0 bd
       -0.1640625 -0.107421875 0.14648438 -0.1015625
000070 00 00 c0 bc 00 00 1e be 00 00 dc 3d 00 00 18 bd
       -0.0234375 -0.15429688 0.107421875 -0.037109375
000080 00 00 06 3e 00 00 48 3d 00 00 2a be 00 00 9c bd
       0.13085938 0.048828125 -0.16601562 -0.076171875
000090 00 00 40 bd 00 00 d0 3c 00 00 b4 bd 00 00 84 3d
       -0.046875 0.025390625 -0.087890625 0.064453125
0000a0 00 00 a8 3d 00 00 fc 3d 00 00 2c 3e 00 00 44 3e
       0.08203125 0.123046875 0.16796875 0.19140625
0000b0 00 00 36 be 00 00 1a be 00 00 10 bd 00 00 40 3e
       -0.17773438 -0.15039062 -0.03515625 0.1875
0000c0 00 00 e4 3d 00 00 08 3e 00 00 c0 3d 00 00 20 be
       0.111328125 0.1328125 0.09375 -0.15625
0000d0 00 00 94 3d 00 00 80 3d 00 00 88 3d 00 00 30 3d
       0.072265625 0.0625 0.06640625 0.04296875
0000e0 00 00 40 3c 00 00 30 3d 00 00 bc bd 00 00 1e be
       0.01171875 0.04296875 -0.091796875 -0.15429688
0000f0 00 00 12 3e 00 00 c4 3d 00 00 0e be 00 00 dc bd
       0.14257812 0.095703125 -0.13867188 -0.107421875
000100 00 00 2a 3e 00 00 28 3d 00 00 2e be 00 00 20 bd
       0.16601562 0.041015625 -0.16992188 -0.0390625
000110 00 00 34 be 00 00 5a 3e 00 00 c0 3d 00 00 4c 3e
       -0.17578125 0.21289062 0.09375 0.19921875
000120 00 00 3c 3e 00 00 48 3d 00 00 8c 3d 00 00 d0 3c
       0.18359375 0.048828125 0.068359375 0.025390625
000130 00 00 e0 3d 00 00 d0 3c 00 00 30 bd 00 00 a8 bd
       0.109375 0.025390625 -0.04296875 -0.08203125
000140 00 00 dc bd 00 00 32 be 00 00 08 3e 00 00 2c be
       -0.107421875 -0.17382812 0.1328125 -0.16796875
000150 00 00 dc 3d 00 00 44 3e 00 00 48 3d 00 00 20 3c
       0.107421875 0.19140625 0.048828125 0.009765625
000160 00 00 bc bd 00 00 2a 3e 00 00 30 3d 00 00 90 3c
       -0.091796875 0.16601562 0.04296875 0.017578125
000170 00 00 e8 bd 00 00 08 3e 00 00 00 80 00 00 5c 3e
       -0.11328125 0.1328125 -0.0 0.21484375
000180 00 00 48 bd 00 00 0a 3e 00 00 58 3d 00 00 44 be
       -0.048828125 0.13476562 0.052734375 -0.19140625
000190 00 00 f0 3d 00 00 08 3e 00 00 08 3e 00 00 c0 3c
       0.1171875 0.1328125 0.1328125 0.0234375
0001a0 00 00 10 3e 00 00 f0 bc 00 00 00 bb 00 00 f8 bd
       0.140625 -0.029296875 -0.001953125 -0.12109375
0001b0 00 00 00 3b 00 00 60 3c 00 00 3c be 00 00 ac bd
       0.001953125 0.013671875 -0.18359375 -0.083984375
0001c0 00 00 0c be 00 00 1c be 00 00 00 bb 00 00 00 3c
       -0.13671875 -0.15234375 -0.001953125 0.0078125
0001d0 00 00 88 3d 00 00 10 bd 00 00 50 3e 00 00 60 bd
       0.06640625 -0.03515625 0.203125 -0.0546875
0001e0 00 00 e0 3d 00 00 4e 3e 00 00 ec 3d 00 00 ac bd
       0.109375 0.20117188 0.115234375 -0.083984375
0001f0 00 00 04 be 00 00 2e 3e 00 00 1a 3e 00 00 d0 3c
       -0.12890625 0.16992188 0.15039062 0.025390625
