fpga_weights_qat/W1.npy (npy, 10368 bytes, 1 tensors)

array f4 [128, 20]
000000 00 00 2e 3e 00 00 20 bd 00 00 66 3e 00 00 34 3e
       0.16992188 -0.0390625 0.22460938 0.17578125
000010 00 00 64 3e 00 00 2a be 00 00 ec 3d 00 00 b4 3d
       0.22265625 -0.16601562 0.115234375 0.087890625
000020 00 00 10 be 00 00 84 bd 00 00 28 3e 00 00 56 be
       -0.140625 -0.064453125 0.1640625 -0.20898438
000030 00 00 30 3d 00 00 60 3d 00 00 68 3d 00 00 36 be
       0.04296875 0.0546875 0.056640625 -0.17773438
000040 00 00 d0 3c 00 00 84 3d 00 00 10 be 00 00 00 bc
       0.025390625 0.064453125 -0.140625 -0.0078125
000050 00 00 84 bd 00 00 12 3e 00 00 08 3d 00 00 d0 3c
       -0.064453125 0.14257812 0.033203125 0.025390625
000060 00 00 98 bd 00 00 08 3e 00 00 08 3d 00 00 34 be
       -0.07421875 0.1328125 0.033203125 -0.17578125
000070 00 00 1e be 00 00 14 3e 00 00 b8 3d 00 00 5c 3e
       -0.15429688 0.14453125 0.08984375 0.21484375
000080 00 00 5a 3e 00 00 8c bd 00 00 2c be 00 00 5e 3e
       0.21289062 -0.068359375 -0.16796875 0.21679688
000090 00 00 68 3d 00 00 48 be 00 00 66 3e 00 00 00 3e
       0.056640625 -0.1953125 0.22460938 0.125
0000a0 00 00 b0 bc 00 00 00 3d 00 00 26 3e 00 00 68 bd
       -0.021484375 0.03125 0.16210938 -0.056640625
0000b0 00 00 0c 3e 00 00 14 3e 00 00 a0 bd 00 00 48 be
       0.13671875 0.14453125 -0.078125 -0.1953125
0000c0 00 00 e8 bd 00 00 d4 bd 00 00 a4 bd 00 00 f0 bc
       -0.11328125 -0.103515625 -0.080078125 -0.029296875
0000d0 00 00 60 bd 00 00 64 be 00 00 4c 3e 00 00 88 3d
       -0.0546875 -0.22265625 0.19921875 0.06640625
0000e0 00 00 56 3e 00 00 a8 3d 00 00 88 bd 00 00 34 be
       0.20898438 0.08203125 -0.06640625 -0.17578125
0000f0 00 00 46 be 00 00 0c 3e 00 00 94 3d 00 00 98 3d
       -0.19335938 0.13671875 0.072265625 0.07421875
000100 00 00 b0 3d 00 00 08 3e 00 00 22 be 00 00 36 3e
       0.0859375 0.1328125 -0.15820312 0.17773438
000110 00 00 cc bd 00 00 6c be 00 00 4a be 00 00 50 bd
       -0.099609375 -0.23046875 -0.19726562 -0.05078125
000120 00 00 d0 3d 00 00 00 00 00 00 0e 3e 00 00 78 3d
       0.1015625 0.0 0.13867188 0.060546875
000130 00 00 9c 3d 00 00 f4 3d 00 00 4a 3e 00 00 00 be
       0.076171875 0.119140625 0.19726562 -0.125
000140 00 00 00 00 00 00 98 bd 00 00 4a 3e 00 00 14 3e
       0.0 -0.07421875 0.19726562 0.14453125
000150 00 00 d0 3c 00 00 d4 3d 00 00 04 be 00 00 50 3e
       0.025390625 0.103515625 -0.12890625 0.203125
000160 00 00 18 3e 00 00 3c 3e 00 00 40 3e 00 00 78 3e
       0.1484375 0.18359375 0.1875 0.2421875
000170 00 00 f0 3c 00 00 1a be 00 00 a0 bc 00 00 f0 3d
       0.029296875 -0.15039062 -0.01953125 0.1171875
000180 00 00 a0 3c 00 00 f0 3c 00 00 48 3e 00 00 62 3e
       0.01953125 0.029296875 0.1953125 0.22070312
000190 00 00 8c bd 00 00 68 bd 00 00 80 bd 00 00 4a 3e
       -0.068359375 -0.056640625 -0.0625 0.19726562
0001a0 00 00 28 3e 00 00 50 3e 00 00 9c 3d 00 00 d8 3d
       0.1640625 0.203125 0.076171875 0.10546875
0001b0 00 00 08 3e 00 00 2e 3e 00 00 90 3d 00 00 4a 3e
       0.1328125 0.16992188 0.0703125 0.19726562
0001c0 00 00 40 3d 00 00 20 bc 00 00 32 be 00 00 06 3e
       0.046875 -0.009765625 -0.17382812 0.13085938
0001d0 00 00 f0 3d 00 00 5c 3e 00 00 44 3e 00 00 10 be
       0.1171875 0.21484375 0.19140625 -0.140625
0001e0 00 00 18 3d 00 00 dc 3d 00 00 18 3e 00 00 e0 3d
       0.037109375 0.107421875 0.1484375 0.109375
0001f0 00 00 80 3b 00 00 0a 3e 00 00 1c be 00 00 00 bd
       0.00390625 0.13476562 -0.15234375 -0.03125
000200 00 00 2a be 00 00 28 3e 00 00 20 3e 00 00 fc 3d
       -0.16601562 0.1640625 0.15625 0.123046875
000210 00 00 90 bd 00 00 80 bb 00 00 ec 3d 00 00 54 be
       -0.0703125 -0.00390625 0.115234375 -0.20703125
000220 00 00 2e be 00 00 20 bd 00 00 2e be 00 00 44 be
       -0.16992188 -0.0390625 -0.16992188 -0.19140625
000230 00 00 a8 bd 00 00 08 be 00 00 6a be 00 00 e0 3c
       -0.08203125 -0.1328125 -0.22851562 0.02734375
000240 00 00 52 be 00 00 bc 3d 00 00 80 3d 00 00 34 be
       -0.20507812 0.091796875 0.0625 -0.17578125
000250 00 00 4e be 00 00 10 3d 00 00 d0 3c 00 00 98 3d
       -0.20117188 0.03515625 0.025390625 0.07421875
000260 00 00 60 be 00 00 44 be 00 00 88 3d 00 00 ac bd
       -0.21875 -0.19140625 0.06640625 -0.083984375
000270 00 00 a8 bd 00 00 30 be 00 00 1e 3e 00 00 1e 3e
       -0.08203125 -0.171875 0.15429688 0.15429688
000280 00 00 98 bd 00 00 3c 3e 00 00 48 bd 00 00 36 3e
       -0.07421875 0.18359375 -0.048828125 0.17773438
000290 00 00 e8 bd 00 00 bc 3d 00 00 06 3e 00 00 58 be
       -0.11328125 0.091796875 0.13085938 -0.2109375
0002a0 00 00 18 3d 00 00 2c 3e 00 00 10 3d 00 00 42 3e
       0.037109375 0.16796875 0.03515625 0.18945312
0002b0 00 00 18 bd 00 00 20 3e 00 00 64 be 00 00 2e 3e
       -0.037109375 0.15625 -0.22265625 0.16992188
0002c0 00 00 4e be 00 00 26 3e 00 00 44 3e 00 00 30 be
       -0.20117188 0.16210938 0.19140625 -0.171875
0002d0 00 00 70 bd 00 00 a8 3d 00 00 b8 bd 00 00 d8 bd
       -0.05859375 0.08203125 -0.08984375 -0.10546875
0002e0 00 00 56 3e 00 00 c0 3c 00 00 fc bd 00 00 c0 3c
       0.20898438 0.0234375 -0.123046875 0.0234375
0002f0 00 00 2c 3e 00 00 dc bd 00 00 a8 bd 00 00 a8 3d
       0.16796875 -0.107421875 -0.08203125 0.08203125
000300 00 00 88 bd 00 00 e0 3c 00 00 f4 3d 00 00 42 be
       -0.06640625 0.02734375 0.119140625 -0.18945312
000310 00 00 e4 bd 00 00 e0 3d 00 00 30 3d 00 00 70 bd
       -0.111328125 0.109375 0.04296875 -0.05859375
000320 00 00 3c be 00 00 40 be 00 00 60 bd 00 00 b4 3d
       -0.18359375 -0.1875 -0.0546875 0.087890625
000330 00 00 18 bd 00 00 1a be 00 00 40 3e 00 00 80 3c
       -0.037109375 -0.15039062 0.1875 0.015625
000340 00 00 b8 3d 00 00 14 be 00 00 54 3e 00 00 58 3e
       0.08984375 -0.14453125 0.20703125 0.2109375
000350 00 00 90 3c 00 00 94 bd 00 00 e4 bd 00 00 58 3d
       0.017578125 -0.072265625 -0.111328125 0.052734375
000360 00 00 88 3d 00 00 0c 3e 00 00 f0 3d 00 00 52 be
       0.06640625 0.13671875 0.1171875 -0.20507812
000370 00 00 90 3c 00 00 58 bd 00 00 4a be 00 00 ec bd
       0.017578125 -0.052734375 -0.19726562 -0.115234375
000380 00 00 58 bd 00 00 10 be 00 00 54 3e 00 00 06 3e
       -0.052734375 -0.140625 0.20703125 0.13085938
000390 00 00 c4 bd 00 00 20 3e 00 00 56 be 00 00 d4 bd
       -0.095703125 0.15625 -0.20898438 -0.103515625
0003a0 00 00 00 3e 00 00 6c 3e 00 00 48 3e 00 00 28 bd
       0.125 0.23046875 0.1953125 -0.041015625
0003b0 00 00 08 be 00 00 46 be 00 00 18 be 00 00 26 3e
       -0.1328125 -0.19335938 -0.1484375 0.16210938
0003c0 00 00 10 3e 00 00 3a be 00 00 38 be 00 00 42 3e
       0.140625 -0.18164062 -0.1796875 0.18945312
0003d0 00 00 80 3d 00 00 56 3e 00 00 2e be 00 00 00 3d
       0.0625 0.20898438 -0.16992188 0.03125
0003e0 00 00 3a be 00 00 00 3c 00 00 68 3e 00 00 0a 3e
       -0.18164062 0.0078125 0.2265625 0.13476562
0003f0 00 00 e0 3c 00 00 38 be 00 00 f4 bd 00 00 46 3e
       0.02734375 -0.1796875 -0.119140625 0.19335938
