fpga_weights - 복사본/B1.npy (npy, 640 bytes, 1 tensors)

array f4 [128]
00000000: 0000 3abe 0000 ccbd 0000 d0bc 0000 60bc
00000010: 0000 5cbe 0000 243e 0000 90bc 0000 40bd
00000020: 0000 d4bd 0000 e0bd 0000 5a3e 0000 c03c
00000030: 0000 b43d 0000 f03c 0000 a4bd 0000 903c
00000040: 0000 20bd 0000 50bd 0000 ac3d 0000 dcbd
00000050: 0000 d03d 0000 50be 0000 32be 0000 163e
00000060: 0000 28be 0000 dcbd 0000 163e 0000 d4bd
00000070: 0000 c0bc 0000 1ebe 0000 dc3d 0000 18bd
00000080: 0000 063e 0000 483d 0000 2abe 0000 9cbd
00000090: 0000 40bd 0000 c03c 0000 b0bd 0000 843d
000000a0: 0000 ac3d 0000 fc3d 0000 2c3e 0000 443e
000000b0: 0000 38be 0000 20be 0000 10bd 0000 403e
000000c0: 0000 e43d 0000 083e 0000 c03d 0000 20be
000000d0: 0000 943d 0000 783d 0000 883d 0000 303d
000000e0: 0000 203c 0000 303d 0000 bcbd 0000 1ebe
000000f0: 0000 123e 0000 c43d 0000 0ebe 0000 dcbd
00000100: 0000 2a3e 0000 283d 0000 2ebe 0000 18bd
00000110: 0000 34be 0000 5a3e 0000 c03d 0000 4c3e
00000120: 0000 3c3e 0000 483d 0000 8c3d 0000 c03c
00000130: 0000 e03d 0000 d03c 0000 30bd 0000 a8bd
00000140: 0000 e4bd 0000 30be 0000 083e 0000 2cbe
00000150: 0000 dc3d 0000 443e 0000 483d 0000 203c
00000160: 0000 b8bd 0000 2a3e 0000 303d 0000 a03c
00000170: 0000 e8bd 0000 083e 0000 0080 0000 5e3e
00000180: 0000 48bd 0000 0a3e 0000 583d 0000 42be
00000190: 0000 ec3d 0000 003e 0000 083e 0000 c03c
000001a0: 0000 123e 0000 f0bc 0000 00bb 0000 f8bd
000001b0: 0000 0080 0000 403c 0000 3abe 0000 acbd
000001c0: 0000 0ebe 0000 1cbe 0000 00bb 0000 003c
000001d0: 0000 883d 0000 10bd 0000 503e 0000 60bd
000001e0: 0000 e03d 0000 4e3e 0000 ec3d 0000 acbd
000001f0: 0000 04be 0000 2e3e 0000 1a3e 0000 d03c
-0.18164062 -0.099609375 -0.025390625 -0.013671875 -0.21484375 0.16015625 -0.017578125 -0.046875
-0.103515625 -0.109375 0.21289062 0.0234375 0.087890625 0.029296875 -0.080078125 0.017578125
-0.0390625 -0.05078125 0.083984375 -0.107421875 0.1015625 -0.203125 -0.17382812 0.14648438
-0.1640625 -0.107421875 0.14648438 -0.103515625 -0.0234375 -0.15429688 0.107421875 -0.037109375
0.13085938 0.048828125 -0.16601562 -0.076171875 -0.046875 0.0234375 -0.0859375 0.064453125
0.083984375 0.123046875 0.16796875 0.19140625 -0.1796875 -0.15625 -0.03515625 0.1875
0.111328125 0.1328125 0.09375 -0.15625 0.072265625 0.060546875 0.06640625 0.04296875
0.009765625 0.04296875 -0.091796875 -0.15429688 0.14257812 0.095703125 -0.13867188 -0.107421875
0.16601562 0.041015625 -0.16992188 -0.037109375 -0.17578125 0.21289062 0.09375 0.19921875
0.18359375 0.048828125 0.068359375 0.0234375 0.109375 0.025390625 -0.04296875 -0.08203125
-0.111328125 -0.171875 0.1328125 -0.16796875 0.107421875 0.19140625 0.048828125 0.009765625
-0.08984375 0.16601562 0.04296875 0.01953125 -0.11328125 0.1328125 -0.0 0.21679688
-0.048828125 0.13476562 0.052734375 -0.18945312 0.115234375 0.125 0.1328125 0.0234375
0.14257812 -0.029296875 -0.001953125 -0.12109375 -0.0 0.01171875 -0.18164062 -0.083984375
-0.13867188 -0.15234375 -0.001953125 0.0078125 0.06640625 -0.03515625 0.203125 -0.0546875
0.109375 0.20117188 0.115234375 -0.083984375 -0.12890625 0.16992188 0.15039062 0.025390625
