fpga_weights - 복사본/B2.npy (npy, 640 bytes, 1 tensors)

array f4 [128]
-0.04296875 0.064453125 -0.06640625 0.025390625 0.083984375 0.0078125 -0.037109375 -0.064453125
0.005859375 -0.017578125 -0.076171875 0.041015625 -0.01953125 -0.04296875 -0.02734375 -0.072265625
-0.091796875 -0.048828125 0.044921875 0.0 0.068359375 0.03125 0.01171875 -0.052734375
0.0078125 0.072265625 0.0234375 0.056640625 -0.06640625 -0.0 -0.001953125 -0.05078125
-0.01953125 -0.078125 -0.041015625 0.0078125 0.041015625 -0.015625 0.072265625 -0.048828125
-0.041015625 0.03125 0.052734375 0.07421875 0.017578125 -0.033203125 0.0 0.0546875
0.03515625 0.009765625 0.048828125 -0.01171875 -0.064453125 0.044921875 -0.044921875 -0.08203125
-0.06640625 0.02734375 0.025390625 -0.009765625 0.07421875 0.07421875 -0.0625 0.001953125
-0.060546875 0.08203125 -0.044921875 0.021484375 -0.015625 -0.009765625 -0.037109375 -0.078125
-0.0546875 0.076171875 0.068359375 0.017578125 0.072265625 0.001953125 0.060546875 -0.037109375
-0.076171875 0.009765625 -0.029296875 0.068359375 0.095703125 -0.00390625 0.0390625 -0.029296875
-0.013671875 -0.044921875 -0.041015625 -0.025390625 -0.046875 -0.064453125 0.07421875 -0.025390625
-0.005859375 -0.0 -0.05078125 0.046875 0.05078125 -0.04296875 0.068359375 -0.046875
-0.013671875 0.041015625 0.0625 0.0703125 0.05078125 -0.076171875 -0.033203125 0.091796875
-0.041015625 -0.01953125 -0.02734375 0.04296875 -0.017578125 -0.009765625 -0.056640625 -0.087890625
0.017578125 -0.064453125 0.044921875 0.01953125 0.009765625 0.08203125 0.025390625 -0.046875
00000000: 0000 30bd 0000 843d 0000 88bd 0000 d03c
00000010: 0000 ac3d 0000 003c 0000 18bd 0000 84bd
00000020: 0000 c03b 0000 90bc 0000 9cbd 0000 283d
00000030: 0000 a0bc 0000 30bd 0000 e0bc 0000 94bd
00000040: 0000 bcbd 0000 48bd 0000 383d 0000 0000
00000050: 0000 8c3d 0000 003d 0000 403c 0000 58bd
00000060: 0000 003c 0000 943d 0000 c03c 0000 683d
00000070: 0000 88bd 0000 0080 0000 00bb 0000 50bd
00000080: 0000 a0bc 0000 a0bd 0000 28bd 0000 003c
00000090: 0000 283d 0000 80bc 0000 943d 0000 48bd
000000a0: 0000 28bd 0000 003d 0000 583d 0000 983d
000000b0: 0000 903c 0000 08bd 0000 0000 0000 603d
000000c0: 0000 103d 0000 203c 0000 483d 0000 40bc
000000d0: 0000 84bd 0000 383d 0000 38bd 0000 a8bd
000000e0: 0000 88bd 0000 e03c 0000 d03c 0000 20bc
000000f0: 0000 983d 0000 983d 0000 80bd 0000 003b
00000100: 0000 78bd 0000 a83d 0000 38bd 0000 b03c
00000110: 0000 80bc 0000 20bc 0000 18bd 0000 a0bd
00000120: 0000 60bd 0000 9c3d 0000 8c3d 0000 903c
00000130: 0000 943d 0000 003b 0000 783d 0000 18bd
00000140: 0000 9cbd 0000 203c 0000 f0bc 0000 8c3d
00000150: 0000 c43d 0000 80bb 0000 203d 0000 f0bc
00000160: 0000 60bc 0000 38bd 0000 28bd 0000 d0bc
00000170: 0000 40bd 0000 84bd 0000 983d 0000 d0bc
00000180: 0000 c0bb 0000 0080 0000 50bd 0000 403d
00000190: 0000 503d 0000 30bd 0000 8c3d 0000 40bd
000001a0: 0000 60bc 0000 283d 0000 803d 0000 903d
000001b0: 0000 503d 0000 9cbd 0000 08bd 0000 bc3d
000001c0: 0000 28bd 0000 a0bc 0000 e0bc 0000 303d
000001d0: 0000 90bc 0000 20bc 0000 68bd 0000 b4bd
000001e0: 0000 903c 0000 84bd 0000 383d 0000 a03c
000001f0: 0000 203c 0000 a83d 0000 d03c 0000 40bd
