fpga_weights - 복사본/W1.npy (npy, 10368 bytes, 1 tensors)

array f4 [128, 20]
0.171875 -0.037109375 0.2265625 0.17773438 0.22460938 -0.1640625 0.1171875 0.08984375
-0.140625 -0.064453125 0.1640625 -0.20703125 0.044921875 0.056640625 0.05859375 -0.17382812
0.02734375 0.064453125 -0.13867188 -0.0078125 -0.064453125 0.14257812 0.033203125 0.0234375
-0.07421875 0.13085938 0.033203125 -0.17578125 -0.15429688 0.14453125 0.08984375 0.21484375
0.2109375 -0.068359375 -0.16796875 0.21679688 0.056640625 -0.19726562 0.22460938 0.125
-0.01953125 0.033203125 0.1640625 -0.056640625 0.13867188 0.14453125 -0.076171875 -0.19335938
-0.111328125 -0.103515625 -0.078125 -0.02734375 -0.0546875 -0.22265625 0.20117188 0.068359375
0.20898438 0.08203125 -0.06640625 -0.17382812 -0.19335938 0.13671875 0.072265625 0.07421875
0.0859375 0.1328125 -0.15820312 0.17773438 -0.099609375 -0.23046875 -0.19726562 -0.05078125
0.1015625 0.0 0.13867188 0.060546875 0.076171875 0.119140625 0.19726562 -0.125
-0.0 -0.07421875 0.19726562 0.14453125 0.025390625 0.103515625 -0.12890625 0.203125
0.1484375 0.18359375 0.1875 0.2421875 0.029296875 -0.15039062 -0.01953125 0.1171875
0.01953125 0.029296875 0.1953125 0.22070312 -0.068359375 -0.056640625 -0.0625 0.19726562
0.1640625 0.20507812 0.076171875 0.10546875 0.1328125 0.171875 0.0703125 0.19726562
0.046875 -0.009765625 -0.17382812 0.13085938 0.1171875 0.21679688 0.19140625 -0.13867188
0.03515625 0.107421875 0.1484375 0.109375 0.00390625 0.1328125 -0.15234375 -0.03125
-0.16601562 0.16210938 0.15625 0.123046875 -0.072265625 -0.005859375 0.115234375 -0.20703125
-0.16992188 -0.0390625 -0.16992188 -0.19140625 -0.080078125 -0.12890625 -0.2265625 0.033203125
-0.20117188 0.095703125 0.06640625 -0.171875 -0.20117188 0.037109375 0.02734375 0.076171875
-0.21679688 -0.18945312 0.06640625 -0.08203125 -0.080078125 -0.16992188 0.15625 0.15625
-0.072265625 0.18554688 -0.046875 0.17773438 -0.111328125 0.091796875 0.13085938 -0.2109375
0.037109375 0.16796875 0.03515625 0.19140625 -0.03515625 0.15625 -0.22265625 0.171875
-0.19921875 0.16210938 0.19140625 -0.16992188 -0.056640625 0.083984375 -0.08984375 -0.107421875
0.20898438 0.021484375 -0.123046875 0.0234375 0.16796875 -0.109375 -0.08203125 0.08203125
-0.06640625 0.02734375 0.119140625 -0.18945312 -0.111328125 0.109375 0.041015625 -0.060546875
-0.18359375 -0.1875 -0.0546875 0.087890625 -0.037109375 -0.15039062 0.1875 0.015625
0.08984375 -0.14453125 0.20703125 0.2109375 0.017578125 -0.072265625 -0.111328125 0.052734375
0.06640625 0.13671875 0.1171875 -0.20507812 0.017578125 -0.052734375 -0.19726562 -0.1171875
-0.052734375 -0.14257812 0.20703125 0.13085938 -0.09765625 0.15625 -0.20898438 -0.103515625
0.123046875 0.22851562 0.19335938 -0.041015625 -0.1328125 -0.19335938 -0.1484375 0.16015625
0.140625 -0.18164062 -0.1796875 0.18945312 0.0625 0.20898438 -0.16992188 0.03125
-0.18164062 0.0078125 0.2265625 0.13476562 0.02734375 -0.1796875 -0.119140625 0.19335938
00000000: 0000 303e 0000 18bd 0000 683e 0000 363e
00000010: 0000 663e 0000 28be 0000 f03d 0000 b83d
00000020: 0000 10be 0000 84bd 0000 283e 0000 54be
00000030: 0000 383d 0000 683d 0000 703d 0000 32be
00000040: 0000 e03c 0000 843d 0000 0ebe 0000 00bc
00000050: 0000 84bd 0000 123e 0000 083d 0000 c03c
00000060: 0000 98bd 0000 063e 0000 083d 0000 34be
00000070: 0000 1ebe 0000 143e 0000 b83d 0000 5c3e
00000080: 0000 583e 0000 8cbd 0000 2cbe 0000 5e3e
00000090: 0000 683d 0000 4abe 0000 663e 0000 003e
000000a0: 0000 a0bc 0000 083d 0000 283e 0000 68bd
000000b0: 0000 0e3e 0000 143e 0000 9cbd 0000 46be
000000c0: 0000 e4bd 0000 d4bd 0000 a0bd 0000 e0bc
000000d0: 0000 60bd 0000 64be 0000 4e3e 0000 8c3d
000000e0: 0000 563e 0000 a83d 0000 88bd 0000 32be
000000f0: 0000 46be 0000 0c3e 0000 943d 0000 983d
00000100: 0000 b03d 0000 083e 0000 22be 0000 363e
00000110: 0000 ccbd 0000 6cbe 0000 4abe 0000 50bd
00000120: 0000 d03d 0000 0000 0000 0e3e 0000 783d
00000130: 0000 9c3d 0000 f43d 0000 4a3e 0000 00be
00000140: 0000 0080 0000 98bd 0000 4a3e 0000 143e
00000150: 0000 d03c 0000 d43d 0000 04be 0000 503e
00000160: 0000 183e 0000 3c3e 0000 403e 0000 783e
00000170: 0000 f03c 0000 1abe 0000 a0bc 0000 f03d
00000180: 0000 a03c 0000 f03c 0000 483e 0000 623e
00000190: 0000 8cbd 0000 68bd 0000 80bd 0000 4a3e
000001a0: 0000 283e 0000 523e 0000 9c3d 0000 d83d
000001b0: 0000 083e 0000 303e 0000 903d 0000 4a3e
000001c0: 0000 403d 0000 20bc 0000 32be 0000 063e
000001d0: 0000 f03d 0000 5e3e 0000 443e 0000 0ebe
000001e0: 0000 103d 0000 dc3d 0000 183e 0000 e03d
000001f0: 0000 803b 0000 083e 0000 1cbe 0000 00bd
00000200: 0000 2abe 0000 263e 0000 203e 0000 fc3d
00000210: 0000 94bd 0000 c0bb 0000 ec3d 0000 54be
00000220: 0000 2ebe 0000 20bd 0000 2ebe 0000 44be
00000230: 0000 a4bd 0000 04be 0000 68be 0000 083d
00000240: 0000 4ebe 0000 c43d 0000 883d 0000 30be
00000250: 0000 4ebe 0000 183d 0000 e03c 0000 9c3d
00000260: 0000 5ebe 0000 42be 0000 883d 0000 a8bd
00000270: 0000 a4bd 0000 2ebe 0000 203e 0000 203e
00000280: 0000 94bd 0000 3e3e 0000 40bd 0000 363e
00000290: 0000 e4bd 0000 bc3d 0000 063e 0000 58be
000002a0: 0000 183d 0000 2c3e 0000 103d 0000 443e
000002b0: 0000 10bd 0000 203e 0000 64be 0000 303e
000002c0: 0000 4cbe 0000 263e 0000 443e 0000 2ebe
000002d0: 0000 68bd 0000 ac3d 0000 b8bd 0000 dcbd
000002e0: 0000 563e 0000 b03c 0000 fcbd 0000 c03c
000002f0: 0000 2c3e 0000 e0bd 0000 a8bd 0000 a83d
00000300: 0000 88bd 0000 e03c 0000 f43d 0000 42be
00000310: 0000 e4bd 0000 e03d 0000 283d 0000 78bd
00000320: 0000 3cbe 0000 40be 0000 60bd 0000 b43d
00000330: 0000 18bd 0000 1abe 0000 403e 0000 803c
00000340: 0000 b83d 0000 14be 0000 543e 0000 583e
00000350: 0000 903c 0000 94bd 0000 e4bd 0000 583d
00000360: 0000 883d 0000 0c3e 0000 f03d 0000 52be
00000370: 0000 903c 0000 58bd 0000 4abe 0000 f0bd
00000380: 0000 58bd 0000 12be 0000 543e 0000 063e
00000390: 0000 c8bd 0000 203e 0000 56be 0000 d4bd
000003a0: 0000 fc3d 0000 6a3e 0000 463e 0000 28bd
000003b0: 0000 08be 0000 46be 0000 18be 0000 243e
000003c0: 0000 103e 0000 3abe 0000 38be 0000 423e
000003d0: 0000 803d 0000 563e 0000 2ebe 0000 003d
000003e0: 0000 3abe 0000 003c 0000 683e 0000 0a3e
000003f0: 0000 e03c 0000 38be 0000 f4bd 0000 463e
